…
I0709 13:07:09.830415 45093 net.cpp:49] Initializing net from parameters: 
name: "ResNet-50"
state {
  phase: TRAIN
}
layer {
  name: "input"
  type: "Input"
  top: "data"
  top: "rois"
  top: "labels"
  top: "bbox_targets"
  top: "bbox_loss_weights"
  input_param {
    shape {
      dim: 1
      dim: 3
      dim: 224
      dim: 224
    }
    shape {
      dim: 1
      dim: 5
      dim: 1
      dim: 1
    }
    shape {
      dim: 1
      dim: 1
      dim: 1
      dim: 1
    }
    shape {
      dim: 1
      dim: 8
      dim: 1
      dim: 1
    }
    shape {
      dim: 1
      dim: 8
      dim: 1
      dim: 1
    }
  }
}
layer {
  name: "conv1"
  type: "Convolution"
  bottom: "data"
  top: "conv1"
  param {
    lr_mult: 0
  }
  param {
    lr_mult: 0
  }
  convolution_param {
    num_output: 64
    pad: 3
    kernel_size: 7
    stride: 2
  }
}
layer {
  name: "bn_conv1"
  type: "BatchNorm"
  bottom: "conv1"
  top: "conv1"
  param {
    lr_mult: 0
    decay_mult: 0
  }
  param {
    lr_mult: 0
    decay_mult: 0
  }
  param {
    lr_mult: 0
    decay_mult: 0
  }
  batch_norm_param {
    use_global_stats: true
  }
}
layer {
  name: "scale_conv1"
  type: "Scale"
  bottom: "conv1"
  top: "conv1"
  param {
    lr_mult: 0
    decay_mult: 0
  }
  param {
    lr_mult: 0
    decay_mult: 0
  }
  scale_param {
    bias_term: true
  }
}
layer {
  name: "conv1_relu"
  type: "ReLU"
  bottom: "conv1"
  top: "conv1"
}
layer {
  name: "pool1"
  type: "Pooling"
  bottom: "conv1"
  top: "pool1"
  pooling_param {
    pool: MAX
    kernel_size: 3
    stride: 2
  }
}
layer {
  name: "res2a_branch1"
  type: "Convolution"
  bottom: "pool1"
  top: "res2a_branch1"
  param {
    lr_mult: 0
  }
  convolution_param {
    num_output: 256
    bias_term: false
    pad: 0
    kernel_size: 1
    stride: 1
  }
}
layer {
  name: "bn2a_branch1"
  type: "BatchNorm"
  bottom: "res2a_branch1"
  top: "res2a_branch1"
  param {
    lr_mult: 0
    decay_mult: 0
  }
  param {
    lr_mult: 0
    decay_mult: 0
  }
  param {
    lr_mult: 0
    decay_mult: 0
  }
  batch_norm_param {
    use_global_stats: true
  }
}
layer {
  name: "scale2a_branch1"
  type: "Scale"
  bottom: "res2a_branch1"
  top: "res2a_branch1"
  param {
    lr_mult: 0
    decay_mult: 0
  }
  param {
    lr_mult: 0
    decay_mult: 0
  }
  scale_param {
    bias_term: true
  }
}
layer {
  name: "res2a_branch2a"
  type: "Convolution"
  bottom: "pool1"
  top: "res2a_branch2a"
  param {
    lr_mult: 0
  }
  convolution_param {
    num_output: 64
    bias_term: false
    pad: 0
    kernel_size: 1
    stride: 1
  }
}
layer {
  name: "bn2a_branch2a"
  type: "BatchNorm"
  bottom: "res2a_branch2a"
  top: "res2a_branch2a"
  param {
    lr_mult: 0
    decay_mult: 0
  }
  param {
    lr_mult: 0
    decay_mult: 0
  }
  param {
    lr_mult: 0
    decay_mult: 0
  }
  batch_norm_param {
    use_global_stats: true
  }
}
layer {
  name: "scale2a_branch2a"
  type: "Scale"
  bottom: "res2a_branch2a"
  top: "res2a_branch2a"
  param {
    lr_mult: 0
    decay_mult: 0
  }
  param {
    lr_mult: 0
    decay_mult: 0
  }
  scale_param {
    bias_term: true
  }
}
layer {
  name: "res2a_branch2a_relu"
  type: "ReLU"
  bottom: "res2a_branch2a"
  top: "res2a_branch2a"
}
layer {
  name: "res2a_branch2b"
  type: "Convolution"
  bottom: "res2a_branch2a"
  top: "res2a_branch2b"
  param {
    lr_mult: 0
  }
  convolution_param {
    num_output: 64
    bias_term: false
    pad: 1
    kernel_size: 3
    stride: 1
  }
}
layer {
  name: "bn2a_branch2b"
  type: "BatchNorm"
  bottom: "res2a_branch2b"
  top: "res2a_branch2b"
  param {
    lr_mult: 0
    decay_mult: 0
  }
  param {
    lr_mult: 0
    decay_mult: 0
  }
  param {
    lr_mult: 0
    decay_mult: 0
  }
  batch_norm_param {
    use_global_stats: true
  }
}
layer {
  name: "scale2a_branch2b"
  type: "Scale"
  bottom: "res2a_branch2b"
  top: "res2a_branch2b"
  param {
    lr_mult: 0
    decay_mult: 0
  }
  param {
    lr_mult: 0
    decay_mult: 0
  }
  scale_param {
    bias_term: true
  }
}
layer {
  name: "res2a_branch2b_relu"
  type: "ReLU"
  bottom: "res2a_branch2b"
  top: "res2a_branch2b"
}
layer {
  name: "res2a_branch2c"
  type: "Convolution"
  bottom: "res2a_branch2b"
  top: "res2a_branch2c"
  param {
    lr_mult: 0
  }
  convolution_param {
    num_output: 256
    bias_term: false
    pad: 0
    kernel_size: 1
    stride: 1
  }
}
layer {
  name: "bn2a_branch2c"
  type: "BatchNorm"
  bottom: "res2a_branch2c"
  top: "res2a_branch2c"
  param {
    lr_mult: 0
    decay_mult: 0
  }
  param {
    lr_mult: 0
    decay_mult: 0
  }
  param {
    lr_mult: 0
    decay_mult: 0
  }
  batch_norm_param {
    use_global_stats: true
  }
}
layer {
  name: "scale2a_branch2c"
  type: "Scale"
  bottom: "res2a_branch2c"
  top: "res2a_branch2c"
  param {
    lr_mult: 0
    decay_mult: 0
  }
  param {
    lr_mult: 0
    decay_mult: 0
  }
  scale_param {
    bias_term: true
  }
}
layer {
  name: "res2a"
  type: "Eltwise"
  bottom: "res2a_branch1"
  bottom: "res2a_branch2c"
  top: "res2a"
}
layer {
  name: "res2a_relu"
  type: "ReLU"
  bottom: "res2a"
  top: "res2a"
}
layer {
  name: "res2b_branch2a"
  type: "Convolution"
  bottom: "res2a"
  top: "res2b_branch2a"
  param {
    lr_mult: 0
  }
  convolution_param {
    num_output: 64
    bias_term: false
    pad: 0
    kernel_size: 1
    stride: 1
  }
}
layer {
  name: "bn2b_branch2a"
  type: "BatchNorm"
  bottom: "res2b_branch2a"
  top: "res2b_branch2a"
  param {
    lr_mult: 0
    decay_mult: 0
  }
  param {
    lr_mult: 0
    decay_mult: 0
  }
  param {
    lr_mult: 0
    decay_mult: 0
  }
  batch_norm_param {
    use_global_stats: true
  }
}
layer {
  name: "scale2b_branch2a"
  type: "Scale"
  bottom: "res2b_branch2a"
  top: "res2b_branch2a"
  param {
    lr_mult: 0
    decay_mult: 0
  }
  param {
    lr_mult: 0
    decay_mult: 0
  }
  scale_param {
    bias_term: true
  }
}
layer {
  name: "res2b_branch2a_relu"
  type: "ReLU"
  bottom: "res2b_branch2a"
  top: "res2b_branch2a"
}
layer {
  name: "res2b_branch2b"
  type: "Convolution"
  bottom: "res2b_branch2a"
  top: "res2b_branch2b"
  param {
    lr_mult: 0
  }
  convolution_param {
    num_output: 64
    bias_term: false
    pad: 1
    kernel_size: 3
    stride: 1
  }
}
layer {
  name: "bn2b_branch2b"
  type: "BatchNorm"
  bottom: "res2b_branch2b"
  top: "res2b_branch2b"
  param {
    lr_mult: 0
    decay_mult: 0
  }
  param {
    lr_mult: 0
    decay_mult: 0
  }
  param {
    lr_mult: 0
    decay_mult: 0
  }
  batch_norm_param {
    use_global_stats: true
  }
}
layer {
  name: "scale2b_branch2b"
  type: "Scale"
  bottom: "res2b_branch2b"
  top: "res2b_branch2b"
  param {
    lr_mult: 0
    decay_mult: 0
  }
  param {
    lr_mult: 0
    decay_mult: 0
  }
  scale_param {
    bias_term: true
  }
}
layer {
  name: "res2b_branch2b_relu"
  type: "ReLU"
  bottom: "res2b_branch2b"
  top: "res2b_branch2b"
}
layer {
  name: "res2b_branch2c"
  type: "Convolution"
  bottom: "res2b_branch2b"
  top: "res2b_branch2c"
  param {
    lr_mult: 0
  }
  convolution_param {
    num_output: 256
    bias_term: false
    pad: 0
    kernel_size: 1
    stride: 1
  }
}
layer {
  name: "bn2b_branch2c"
  type: "BatchNorm"
  bottom: "res2b_branch2c"
  top: "res2b_branch2c"
  param {
    lr_mult: 0
    decay_mult: 0
  }
  param {
    lr_mult: 0
    decay_mult: 0
  }
  param {
    lr_mult: 0
    decay_mult: 0
  }
  batch_norm_param {
    use_global_stats: true
  }
}
layer {
  name: "scale2b_branch2c"
  type: "Scale"
  bottom: "res2b_branch2c"
  top: "res2b_branch2c"
  param {
    lr_mult: 0
    decay_mult: 0
  }
  param {
    lr_mult: 0
    decay_mult: 0
  }
  scale_param {
    bias_term: true
  }
}
layer {
  name: "res2b"
  type: "Eltwise"
  bottom: "res2a"
  bottom: "res2b_branch2c"
  top: "res2b"
}
layer {
  name: "res2b_relu"
  type: "ReLU"
  bottom: "res2b"
  top: "res2b"
}
layer {
  name: "res2c_branch2a"
  type: "Convolution"
  bottom: "res2b"
  top: "res2c_branch2a"
  param {
    lr_mult: 0
  }
  convolution_param {
    num_output: 64
    bias_term: false
    pad: 0
    kernel_size: 1
    stride: 1
  }
}
layer {
  name: "bn2c_branch2a"
  type: "BatchNorm"
  bottom: "res2c_branch2a"
  top: "res2c_branch2a"
  param {
    lr_mult: 0
    decay_mult: 0
  }
  param {
    lr_mult: 0
    decay_mult: 0
  }
  param {
    lr_mult: 0
    decay_mult: 0
  }
  batch_norm_param {
    use_global_stats: true
  }
}
layer {
  name: "scale2c_branch2a"
  type: "Scale"
  bottom: "res2c_branch2a"
  top: "res2c_branch2a"
  param {
    lr_mult: 0
    decay_mult: 0
  }
  param {
    lr_mult: 0
    decay_mult: 0
  }
  scale_param {
    bias_term: true
  }
}
layer {
  name: "res2c_branch2a_relu"
  type: "ReLU"
  bottom: "res2c_branch2a"
  top: "res2c_branch2a"
}
layer {
  name: "res2c_branch2b"
  type: "Convolution"
  bottom: "res2c_branch2a"
  top: "res2c_branch2b"
  param {
    lr_mult: 0
  }
  convolution_param {
    num_output: 64
    bias_term: false
    pad: 1
    kernel_size: 3
    stride: 1
  }
}
layer {
  name: "bn2c_branch2b"
  type: "BatchNorm"
  bottom: "res2c_branch2b"
  top: "res2c_branch2b"
  param {
    lr_mult: 0
    decay_mult: 0
  }
  param {
    lr_mult: 0
    decay_mult: 0
  }
  param {
    lr_mult: 0
    decay_mult: 0
  }
  batch_norm_param {
    use_global_stats: true
  }
}
layer {
  name: "scale2c_branch2b"
  type: "Scale"
  bottom: "res2c_branch2b"
  top: "res2c_branch2b"
  param {
    lr_mult: 0
    decay_mult: 0
  }
  param {
    lr_mult: 0
    decay_mult: 0
  }
  scale_param {
    bias_term: true
  }
}
layer {
  name: "res2c_branch2b_relu"
  type: "ReLU"
  bottom: "res2c_branch2b"
  top: "res2c_branch2b"
}
layer {
  name: "res2c_branch2c"
  type: "Convolution"
  bottom: "res2c_branch2b"
  top: "res2c_branch2c"
  param {
    lr_mult: 0
  }
  convolution_param {
    num_output: 256
    bias_term: false
    pad: 0
    kernel_size: 1
    stride: 1
  }
}
layer {
  name: "bn2c_branch2c"
  type: "BatchNorm"
  bottom: "res2c_branch2c"
  top: "res2c_branch2c"
  param {
    lr_mult: 0
    decay_mult: 0
  }
  param {
    lr_mult: 0
    decay_mult: 0
  }
  param {
    lr_mult: 0
    decay_mult: 0
  }
  batch_norm_param {
    use_global_stats: true
  }
}
layer {
  name: "scale2c_branch2c"
  type: "Scale"
  bottom: "res2c_branch2c"
  top: "res2c_branch2c"
  param {
    lr_mult: 0
    decay_mult: 0
  }
  param {
    lr_mult: 0
    decay_mult: 0
  }
  scale_param {
    bias_term: true
  }
}
layer {
  name: "res2c"
  type: "Eltwise"
  bottom: "res2b"
  bottom: "res2c_branch2c"
  top: "res2c"
}
layer {
  name: "res2c_relu"
  type: "ReLU"
  bottom: "res2c"
  top: "res2c"
}
layer {
  name: "res3a_branch1"
  type: "Convolution"
  bottom: "res2c"
  top: "res3a_branch1"
  param {
    lr_mult: 1
  }
  convolution_param {
    num_output: 512
    bias_term: false
    pad: 0
    kernel_size: 1
    stride: 2
  }
}
layer {
  name: "bn3a_branch1"
  type: "BatchNorm"
  bottom: "res3a_branch1"
  top: "res3a_branch1"
  param {
    lr_mult: 0
    decay_mult: 0
  }
  param {
    lr_mult: 0
    decay_mult: 0
  }
  param {
    lr_mult: 0
    decay_mult: 0
  }
  batch_norm_param {
    use_global_stats: true
  }
}
layer {
  name: "scale3a_branch1"
  type: "Scale"
  bottom: "res3a_branch1"
  top: "res3a_branch1"
  param {
    lr_mult: 0
    decay_mult: 0
  }
  param {
    lr_mult: 0
    decay_mult: 0
  }
  scale_param {
    bias_term: true
  }
}
layer {
  name: "res3a_branch2a"
  type: "Convolution"
  bottom: "res2c"
  top: "res3a_branch2a"
  param {
    lr_mult: 1
  }
  convolution_param {
    num_output: 128
    bias_term: false
    pad: 0
    kernel_size: 1
    stride: 2
  }
}
layer {
  name: "bn3a_branch2a"
  type: "BatchNorm"
  bottom: "res3a_branch2a"
  top: "res3a_branch2a"
  param {
    lr_mult: 0
    decay_mult: 0
  }
  param {
    lr_mult: 0
    decay_mult: 0
  }
  param {
    lr_mult: 0
    decay_mult: 0
  }
  batch_norm_param {
    use_global_stats: true
  }
}
layer {
  name: "scale3a_branch2a"
  type: "Scale"
  bottom: "res3a_branch2a"
  top: "res3a_branch2a"
  param {
    lr_mult: 0
    decay_mult: 0
  }
  param {
    lr_mult: 0
    decay_mult: 0
  }
  scale_param {
    bias_term: true
  }
}
layer {
  name: "res3a_branch2a_relu"
  type: "ReLU"
  bottom: "res3a_branch2a"
  top: "res3a_branch2a"
}
layer {
  name: "res3a_branch2b"
  type: "Convolution"
  bottom: "res3a_branch2a"
  top: "res3a_branch2b"
  param {
    lr_mult: 1
  }
  convolution_param {
    num_output: 128
    bias_term: false
    pad: 1
    kernel_size: 3
    stride: 1
  }
}
layer {
  name: "bn3a_branch2b"
  type: "BatchNorm"
  bottom: "res3a_branch2b"
  top: "res3a_branch2b"
  param {
    lr_mult: 0
    decay_mult: 0
  }
  param {
    lr_mult: 0
    decay_mult: 0
  }
  param {
    lr_mult: 0
    decay_mult: 0
  }
  batch_norm_param {
    use_global_stats: true
  }
}
layer {
  name: "scale3a_branch2b"
  type: "Scale"
  bottom: "res3a_branch2b"
  top: "res3a_branch2b"
  param {
    lr_mult: 0
    decay_mult: 0
  }
  param {
    lr_mult: 0
    decay_mult: 0
  }
  scale_param {
    bias_term: true
  }
}
layer {
  name: "res3a_branch2b_relu"
  type: "ReLU"
  bottom: "res3a_branch2b"
  top: "res3a_branch2b"
}
layer {
  name: "res3a_branch2c"
  type: "Convolution"
  bottom: "res3a_branch2b"
  top: "res3a_branch2c"
  param {
    lr_mult: 1
  }
  convolution_param {
    num_output: 512
    bias_term: false
    pad: 0
    kernel_size: 1
    stride: 1
  }
}
layer {
  name: "bn3a_branch2c"
  type: "BatchNorm"
  bottom: "res3a_branch2c"
  top: "res3a_branch2c"
  param {
    lr_mult: 0
    decay_mult: 0
  }
  param {
    lr_mult: 0
    decay_mult: 0
  }
  param {
    lr_mult: 0
    decay_mult: 0
  }
  batch_norm_param {
    use_global_stats: true
  }
}
layer {
  name: "scale3a_branch2c"
  type: "Scale"
  bottom: "res3a_branch2c"
  top: "res3a_branch2c"
  param {
    lr_mult: 0
    decay_mult: 0
  }
  param {
    lr_mult: 0
    decay_mult: 0
  }
  scale_param {
    bias_term: true
  }
}
layer {
  name: "res3a"
  type: "Eltwise"
  bottom: "res3a_branch1"
  bottom: "res3a_branch2c"
  top: "res3a"
}
layer {
  name: "res3a_relu"
  type: "ReLU"
  bottom: "res3a"
  top: "res3a"
}
layer {
  name: "res3b_branch2a"
  type: "Convolution"
  bottom: "res3a"
  top: "res3b_branch2a"
  param {
    lr_mult: 1
  }
  convolution_param {
    num_output: 128
    bias_term: false
    pad: 0
    kernel_size: 1
    stride: 1
  }
}
layer {
  name: "bn3b_branch2a"
  type: "BatchNorm"
  bottom: "res3b_branch2a"
  top: "res3b_branch2a"
  param {
    lr_mult: 0
    decay_mult: 0
  }
  param {
    lr_mult: 0
    decay_mult: 0
  }
  param {
    lr_mult: 0
    decay_mult: 0
  }
  batch_norm_param {
    use_global_stats: true
  }
}
layer {
  name: "scale3b_branch2a"
  type: "Scale"
  bottom: "res3b_branch2a"
  top: "res3b_branch2a"
  param {
    lr_mult: 0
    decay_mult: 0
  }
  param {
    lr_mult: 0
    decay_mult: 0
  }
  scale_param {
    bias_term: true
  }
}
layer {
  name: "res3b_branch2a_relu"
  type: "ReLU"
  bottom: "res3b_branch2a"
  top: "res3b_branch2a"
}
layer {
  name: "res3b_branch2b"
  type: "Convolution"
  bottom: "res3b_branch2a"
  top: "res3b_branch2b"
  param {
    lr_mult: 1
  }
  convolution_param {
    num_output: 128
    bias_term: false
    pad: 1
    kernel_size: 3
    stride: 1
  }
}
layer {
  name: "bn3b_branch2b"
  type: "BatchNorm"
  bottom: "res3b_branch2b"
  top: "res3b_branch2b"
  param {
    lr_mult: 0
    decay_mult: 0
  }
  param {
    lr_mult: 0
    decay_mult: 0
  }
  param {
    lr_mult: 0
    decay_mult: 0
  }
  batch_norm_param {
    use_global_stats: true
  }
}
layer {
  name: "scale3b_branch2b"
  type: "Scale"
  bottom: "res3b_branch2b"
  top: "res3b_branch2b"
  param {
    lr_mult: 0
    decay_mult: 0
  }
  param {
    lr_mult: 0
    decay_mult: 0
  }
  scale_param {
    bias_term: true
  }
}
layer {
  name: "res3b_branch2b_relu"
  type: "ReLU"
  bottom: "res3b_branch2b"
  top: "res3b_branch2b"
}
layer {
  name: "res3b_branch2c"
  type: "Convolution"
  bottom: "res3b_branch2b"
  top: "res3b_branch2c"
  param {
    lr_mult: 1
  }
  convolution_param {
    num_output: 512
    bias_term: false
    pad: 0
    kernel_size: 1
    stride: 1
  }
}
layer {
  name: "bn3b_branch2c"
  type: "BatchNorm"
  bottom: "res3b_branch2c"
  top: "res3b_branch2c"
  param {
    lr_mult: 0
    decay_mult: 0
  }
  param {
    lr_mult: 0
    decay_mult: 0
  }
  param {
    lr_mult: 0
    decay_mult: 0
  }
  batch_norm_param {
    use_global_stats: true
  }
}
layer {
  name: "scale3b_branch2c"
  type: "Scale"
  bottom: "res3b_branch2c"
  top: "res3b_branch2c"
  param {
    lr_mult: 0
    decay_mult: 0
  }
  param {
    lr_mult: 0
    decay_mult: 0
  }
  scale_param {
    bias_term: true
  }
}
layer {
  name: "res3b"
  type: "Eltwise"
  bottom: "res3a"
  bottom: "res3b_branch2c"
  top: "res3b"
}
layer {
  name: "res3b_relu"
  type: "ReLU"
  bottom: "res3b"
  top: "res3b"
}
layer {
  name: "res3c_branch2a"
  type: "Convolution"
  bottom: "res3b"
  top: "res3c_branch2a"
  param {
    lr_mult: 1
  }
  convolution_param {
    num_output: 128
    bias_term: false
    pad: 0
    kernel_size: 1
    stride: 1
  }
}
layer {
  name: "bn3c_branch2a"
  type: "BatchNorm"
  bottom: "res3c_branch2a"
  top: "res3c_branch2a"
  param {
    lr_mult: 0
    decay_mult: 0
  }
  param {
    lr_mult: 0
    decay_mult: 0
  }
  param {
    lr_mult: 0
    decay_mult: 0
  }
  batch_norm_param {
    use_global_stats: true
  }
}
layer {
  name: "scale3c_branch2a"
  type: "Scale"
  bottom: "res3c_branch2a"
  top: "res3c_branch2a"
  param {
    lr_mult: 0
    decay_mult: 0
  }
  param {
    lr_mult: 0
    decay_mult: 0
  }
  scale_param {
    bias_term: true
  }
}
layer {
  name: "res3c_branch2a_relu"
  type: "ReLU"
  bottom: "res3c_branch2a"
  top: "res3c_branch2a"
}
layer {
  name: "res3c_branch2b"
  type: "Convolution"
  bottom: "res3c_branch2a"
  top: "res3c_branch2b"
  param {
    lr_mult: 1
  }
  convolution_param {
    num_output: 128
    bias_term: false
    pad: 1
    kernel_size: 3
    stride: 1
  }
}
layer {
  name: "bn3c_branch2b"
  type: "BatchNorm"
  bottom: "res3c_branch2b"
  top: "res3c_branch2b"
  param {
    lr_mult: 0
    decay_mult: 0
  }
  param {
    lr_mult: 0
    decay_mult: 0
  }
  param {
    lr_mult: 0
    decay_mult: 0
  }
  batch_norm_param {
    use_global_stats: true
  }
}
layer {
  name: "scale3c_branch2b"
  type: "Scale"
  bottom: "res3c_branch2b"
  top: "res3c_branch2b"
  param {
    lr_mult: 0
    decay_mult: 0
  }
  param {
    lr_mult: 0
    decay_mult: 0
  }
  scale_param {
    bias_term: true
  }
}
layer {
  name: "res3c_branch2b_relu"
  type: "ReLU"
  bottom: "res3c_branch2b"
  top: "res3c_branch2b"
}
layer {
  name: "res3c_branch2c"
  type: "Convolution"
  bottom: "res3c_branch2b"
  top: "res3c_branch2c"
  param {
    lr_mult: 1
  }
  convolution_param {
    num_output: 512
    bias_term: false
    pad: 0
    kernel_size: 1
    stride: 1
  }
}
layer {
  name: "bn3c_branch2c"
  type: "BatchNorm"
  bottom: "res3c_branch2c"
  top: "res3c_branch2c"
  param {
    lr_mult: 0
    decay_mult: 0
  }
  param {
    lr_mult: 0
    decay_mult: 0
  }
  param {
    lr_mult: 0
    decay_mult: 0
  }
  batch_norm_param {
    use_global_stats: true
  }
}
layer {
  name: "scale3c_branch2c"
  type: "Scale"
  bottom: "res3c_branch2c"
  top: "res3c_branch2c"
  param {
    lr_mult: 0
    decay_mult: 0
  }
  param {
    lr_mult: 0
    decay_mult: 0
  }
  scale_param {
    bias_term: true
  }
}
layer {
  name: "res3c"
  type: "Eltwise"
  bottom: "res3b"
  bottom: "res3c_branch2c"
  top: "res3c"
}
layer {
  name: "res3c_relu"
  type: "ReLU"
  bottom: "res3c"
  top: "res3c"
}
layer {
  name: "res3d_branch2a"
  type: "Convolution"
  bottom: "res3c"
  top: "res3d_branch2a"
  param {
    lr_mult: 1
  }
  convolution_param {
    num_output: 128
    bias_term: false
    pad: 0
    kernel_size: 1
    stride: 1
  }
}
layer {
  name: "bn3d_branch2a"
  type: "BatchNorm"
  bottom: "res3d_branch2a"
  top: "res3d_branch2a"
  param {
    lr_mult: 0
    decay_mult: 0
  }
  param {
    lr_mult: 0
    decay_mult: 0
  }
  param {
    lr_mult: 0
    decay_mult: 0
  }
  batch_norm_param {
    use_global_stats: true
  }
}
layer {
  name: "scale3d_branch2a"
  type: "Scale"
  bottom: "res3d_branch2a"
  top: "res3d_branch2a"
  param {
    lr_mult: 0
    decay_mult: 0
  }
  param {
    lr_mult: 0
    decay_mult: 0
  }
  scale_param {
    bias_term: true
  }
}
layer {
  name: "res3d_branch2a_relu"
  type: "ReLU"
  bottom: "res3d_branch2a"
  top: "res3d_branch2a"
}
layer {
  name: "res3d_branch2b"
  type: "Convolution"
  bottom: "res3d_branch2a"
  top: "res3d_branch2b"
  param {
    lr_mult: 1
  }
  convolution_param {
    num_output: 128
    bias_term: false
    pad: 1
    kernel_size: 3
    stride: 1
  }
}
layer {
  name: "bn3d_branch2b"
  type: "BatchNorm"
  bottom: "res3d_branch2b"
  top: "res3d_branch2b"
  param {
    lr_mult: 0
    decay_mult: 0
  }
  param {
    lr_mult: 0
    decay_mult: 0
  }
  param {
    lr_mult: 0
    decay_mult: 0
  }
  batch_norm_param {
    use_global_stats: true
  }
}
layer {
  name: "scale3d_branch2b"
  type: "Scale"
  bottom: "res3d_branch2b"
  top: "res3d_branch2b"
  param {
    lr_mult: 0
    decay_mult: 0
  }
  param {
    lr_mult: 0
    decay_mult: 0
  }
  scale_param {
    bias_term: true
  }
}
layer {
  name: "res3d_branch2b_relu"
  type: "ReLU"
  bottom: "res3d_branch2b"
  top: "res3d_branch2b"
}
layer {
  name: "res3d_branch2c"
  type: "Convolution"
  bottom: "res3d_branch2b"
  top: "res3d_branch2c"
  param {
    lr_mult: 1
  }
  convolution_param {
    num_output: 512
    bias_term: false
    pad: 0
    kernel_size: 1
    stride: 1
  }
}
layer {
  name: "bn3d_branch2c"
  type: "BatchNorm"
  bottom: "res3d_branch2c"
  top: "res3d_branch2c"
  param {
    lr_mult: 0
    decay_mult: 0
  }
  param {
    lr_mult: 0
    decay_mult: 0
  }
  param {
    lr_mult: 0
    decay_mult: 0
  }
  batch_norm_param {
    use_global_stats: true
  }
}
layer {
  name: "scale3d_branch2c"
  type: "Scale"
  bottom: "res3d_branch2c"
  top: "res3d_branch2c"
  param {
    lr_mult: 0
    decay_mult: 0
  }
  param {
    lr_mult: 0
    decay_mult: 0
  }
  scale_param {
    bias_term: true
  }
}
layer {
  name: "res3d"
  type: "Eltwise"
  bottom: "res3c"
  bottom: "res3d_branch2c"
  top: "res3d"
}
layer {
  name: "res3d_relu"
  type: "ReLU"
  bottom: "res3d"
  top: "res3d"
}
layer {
  name: "res4a_branch1"
  type: "Convolution"
  bottom: "res3d"
  top: "res4a_branch1"
  param {
    lr_mult: 1
  }
  convolution_param {
    num_output: 1024
    bias_term: false
    pad: 0
    kernel_size: 1
    stride: 2
  }
}
layer {
  name: "bn4a_branch1"
  type: "BatchNorm"
  bottom: "res4a_branch1"
  top: "res4a_branch1"
  param {
    lr_mult: 0
    decay_mult: 0
  }
  param {
    lr_mult: 0
    decay_mult: 0
  }
  param {
    lr_mult: 0
    decay_mult: 0
  }
  batch_norm_param {
    use_global_stats: true
  }
}
layer {
  name: "scale4a_branch1"
  type: "Scale"
  bottom: "res4a_branch1"
  top: "res4a_branch1"
  param {
    lr_mult: 0
    decay_mult: 0
  }
  param {
    lr_mult: 0
    decay_mult: 0
  }
  scale_param {
    bias_term: true
  }
}
layer {
  name: "res4a_branch2a"
  type: "Convolution"
  bottom: "res3d"
  top: "res4a_branch2a"
  param {
    lr_mult: 1
  }
  convolution_param {
    num_output: 256
    bias_term: false
    pad: 0
    kernel_size: 1
    stride: 2
  }
}
layer {
  name: "bn4a_branch2a"
  type: "BatchNorm"
  bottom: "res4a_branch2a"
  top: "res4a_branch2a"
  param {
    lr_mult: 0
    decay_mult: 0
  }
  param {
    lr_mult: 0
    decay_mult: 0
  }
  param {
    lr_mult: 0
    decay_mult: 0
  }
  batch_norm_param {
    use_global_stats: true
  }
}
layer {
  name: "scale4a_branch2a"
  type: "Scale"
  bottom: "res4a_branch2a"
  top: "res4a_branch2a"
  param {
    lr_mult: 0
    decay_mult: 0
  }
  param {
    lr_mult: 0
    decay_mult: 0
  }
  scale_param {
    bias_term: true
  }
}
layer {
  name: "res4a_branch2a_relu"
  type: "ReLU"
  bottom: "res4a_branch2a"
  top: "res4a_branch2a"
}
layer {
  name: "res4a_branch2b"
  type: "Convolution"
  bottom: "res4a_branch2a"
  top: "res4a_branch2b"
  param {
    lr_mult: 1
  }
  convolution_param {
    num_output: 256
    bias_term: false
    pad: 1
    kernel_size: 3
    stride: 1
  }
}
layer {
  name: "bn4a_branch2b"
  type: "BatchNorm"
  bottom: "res4a_branch2b"
  top: "res4a_branch2b"
  param {
    lr_mult: 0
    decay_mult: 0
  }
  param {
    lr_mult: 0
    decay_mult: 0
  }
  param {
    lr_mult: 0
    decay_mult: 0
  }
  batch_norm_param {
    use_global_stats: true
  }
}
layer {
  name: "scale4a_branch2b"
  type: "Scale"
  bottom: "res4a_branch2b"
  top: "res4a_branch2b"
  param {
    lr_mult: 0
    decay_mult: 0
  }
  param {
    lr_mult: 0
    decay_mult: 0
  }
  scale_param {
    bias_term: true
  }
}
layer {
  name: "res4a_branch2b_relu"
  type: "ReLU"
  bottom: "res4a_branch2b"
  top: "res4a_branch2b"
}
layer {
  name: "res4a_branch2c"
  type: "Convolution"
  bottom: "res4a_branch2b"
  top: "res4a_branch2c"
  param {
    lr_mult: 1
  }
  convolution_param {
    num_output: 1024
    bias_term: false
    pad: 0
    kernel_size: 1
    stride: 1
  }
}
layer {
  name: "bn4a_branch2c"
  type: "BatchNorm"
  bottom: "res4a_branch2c"
  top: "res4a_branch2c"
  param {
    lr_mult: 0
    decay_mult: 0
  }
  param {
    lr_mult: 0
    decay_mult: 0
  }
  param {
    lr_mult: 0
    decay_mult: 0
  }
  batch_norm_param {
    use_global_stats: true
  }
}
layer {
  name: "scale4a_branch2c"
  type: "Scale"
  bottom: "res4a_branch2c"
  top: "res4a_branch2c"
  param {
    lr_mult: 0
    decay_mult: 0
  }
  param {
    lr_mult: 0
    decay_mult: 0
  }
  scale_param {
    bias_term: true
  }
}
layer {
  name: "res4a"
  type: "Eltwise"
  bottom: "res4a_branch1"
  bottom: "res4a_branch2c"
  top: "res4a"
}
layer {
  name: "res4a_relu"
  type: "ReLU"
  bottom: "res4a"
  top: "res4a"
}
layer {
  name: "res4b_branch2a"
  type: "Convolution"
  bottom: "res4a"
  top: "res4b_branch2a"
  param {
    lr_mult: 1
  }
  convolution_param {
    num_output: 256
    bias_term: false
    pad: 0
    kernel_size: 1
    stride: 1
  }
}
layer {
  name: "bn4b_branch2a"
  type: "BatchNorm"
  bottom: "res4b_branch2a"
  top: "res4b_branch2a"
  param {
    lr_mult: 0
    decay_mult: 0
  }
  param {
    lr_mult: 0
    decay_mult: 0
  }
  param {
    lr_mult: 0
    decay_mult: 0
  }
  batch_norm_param {
    use_global_stats: true
  }
}
layer {
  name: "scale4b_branch2a"
  type: "Scale"
  bottom: "res4b_branch2a"
  top: "res4b_branch2a"
  param {
    lr_mult: 0
    decay_mult: 0
  }
  param {
    lr_mult: 0
    decay_mult: 0
  }
  scale_param {
    bias_term: true
  }
}
layer {
  name: "res4b_branch2a_relu"
  type: "ReLU"
  bottom: "res4b_branch2a"
  top: "res4b_branch2a"
}
layer {
  name: "res4b_branch2b"
  type: "Convolution"
  bottom: "res4b_branch2a"
  top: "res4b_branch2b"
  param {
    lr_mult: 1
  }
  convolution_param {
    num_output: 256
    bias_term: false
    pad: 1
    kernel_size: 3
    stride: 1
  }
}
layer {
  name: "bn4b_branch2b"
  type: "BatchNorm"
  bottom: "res4b_branch2b"
  top: "res4b_branch2b"
  param {
    lr_mult: 0
    decay_mult: 0
  }
  param {
    lr_mult: 0
    decay_mult: 0
  }
  param {
    lr_mult: 0
    decay_mult: 0
  }
  batch_norm_param {
    use_global_stats: true
  }
}
layer {
  name: "scale4b_branch2b"
  type: "Scale"
  bottom: "res4b_branch2b"
  top: "res4b_branch2b"
  param {
    lr_mult: 0
    decay_mult: 0
  }
  param {
    lr_mult: 0
    decay_mult: 0
  }
  scale_param {
    bias_term: true
  }
}
layer {
  name: "res4b_branch2b_relu"
  type: "ReLU"
  bottom: "res4b_branch2b"
  top: "res4b_branch2b"
}
layer {
  name: "res4b_branch2c"
  type: "Convolution"
  bottom: "res4b_branch2b"
  top: "res4b_branch2c"
  param {
    lr_mult: 1
  }
  convolution_param {
    num_output: 1024
    bias_term: false
    pad: 0
    kernel_size: 1
    stride: 1
  }
}
layer {
  name: "bn4b_branch2c"
  type: "BatchNorm"
  bottom: "res4b_branch2c"
  top: "res4b_branch2c"
  param {
    lr_mult: 0
    decay_mult: 0
  }
  param {
    lr_mult: 0
    decay_mult: 0
  }
  param {
    lr_mult: 0
    decay_mult: 0
  }
  batch_norm_param {
    use_global_stats: true
  }
}
layer {
  name: "scale4b_branch2c"
  type: "Scale"
  bottom: "res4b_branch2c"
  top: "res4b_branch2c"
  param {
    lr_mult: 0
    decay_mult: 0
  }
  param {
    lr_mult: 0
    decay_mult: 0
  }
  scale_param {
    bias_term: true
  }
}
layer {
  name: "res4b"
  type: "Eltwise"
  bottom: "res4a"
  bottom: "res4b_branch2c"
  top: "res4b"
}
layer {
  name: "res4b_relu"
  type: "ReLU"
  bottom: "res4b"
  top: "res4b"
}
layer {
  name: "res4c_branch2a"
  type: "Convolution"
  bottom: "res4b"
  top: "res4c_branch2a"
  param {
    lr_mult: 1
  }
  convolution_param {
    num_output: 256
    bias_term: false
    pad: 0
    kernel_size: 1
    stride: 1
  }
}
layer {
  name: "bn4c_branch2a"
  type: "BatchNorm"
  bottom: "res4c_branch2a"
  top: "res4c_branch2a"
  param {
    lr_mult: 0
    decay_mult: 0
  }
  param {
    lr_mult: 0
    decay_mult: 0
  }
  param {
    lr_mult: 0
    decay_mult: 0
  }
  batch_norm_param {
    use_global_stats: true
  }
}
layer {
  name: "scale4c_branch2a"
  type: "Scale"
  bottom: "res4c_branch2a"
  top: "res4c_branch2a"
  param {
    lr_mult: 0
    decay_mult: 0
  }
  param {
    lr_mult: 0
    decay_mult: 0
  }
  scale_param {
    bias_term: true
  }
}
layer {
  name: "res4c_branch2a_relu"
  type: "ReLU"
  bottom: "res4c_branch2a"
  top: "res4c_branch2a"
}
layer {
  name: "res4c_branch2b"
  type: "Convolution"
  bottom: "res4c_branch2a"
  top: "res4c_branch2b"
  param {
    lr_mult: 1
  }
  convolution_param {
    num_output: 256
    bias_term: false
    pad: 1
    kernel_size: 3
    stride: 1
  }
}
layer {
  name: "bn4c_branch2b"
  type: "BatchNorm"
  bottom: "res4c_branch2b"
  top: "res4c_branch2b"
  param {
    lr_mult: 0
    decay_mult: 0
  }
  param {
    lr_mult: 0
    decay_mult: 0
  }
  param {
    lr_mult: 0
    decay_mult: 0
  }
  batch_norm_param {
    use_global_stats: true
  }
}
layer {
  name: "scale4c_branch2b"
  t
I0709 13:07:09.832069 45093 layer_factory.hpp:77] Creating layer input
I0709 13:07:09.832098 45093 net.cpp:91] Creating Layer input
I0709 13:07:09.832104 45093 net.cpp:409] input -> data
I0709 13:07:09.832123 45093 net.cpp:409] input -> rois
I0709 13:07:09.832134 45093 net.cpp:409] input -> labels
I0709 13:07:09.832144 45093 net.cpp:409] input -> bbox_targets
I0709 13:07:09.832151 45093 net.cpp:409] input -> bbox_loss_weights
I0709 13:07:09.832171 45093 net.cpp:141] Setting up input
I0709 13:07:09.832178 45093 net.cpp:148] Top shape: 1 3 224 224 (150528)
I0709 13:07:09.832183 45093 net.cpp:148] Top shape: 1 5 1 1 (5)
I0709 13:07:09.832188 45093 net.cpp:148] Top shape: 1 1 1 1 (1)
I0709 13:07:09.832193 45093 net.cpp:148] Top shape: 1 8 1 1 (8)
I0709 13:07:09.832198 45093 net.cpp:148] Top shape: 1 8 1 1 (8)
I0709 13:07:09.832201 45093 net.cpp:156] Memory required for data: 602200
I0709 13:07:09.832206 45093 layer_factory.hpp:77] Creating layer rois_input_1_split
I0709 13:07:09.832212 45093 net.cpp:91] Creating Layer rois_input_1_split
I0709 13:07:09.832217 45093 net.cpp:435] rois_input_1_split <- rois
I0709 13:07:09.832224 45093 net.cpp:409] rois_input_1_split -> rois_input_1_split_0
I0709 13:07:09.832231 45093 net.cpp:409] rois_input_1_split -> rois_input_1_split_1
I0709 13:07:09.832239 45093 net.cpp:409] rois_input_1_split -> rois_input_1_split_2
I0709 13:07:09.832248 45093 net.cpp:141] Setting up rois_input_1_split
I0709 13:07:09.832253 45093 net.cpp:148] Top shape: 1 5 1 1 (5)
I0709 13:07:09.832258 45093 net.cpp:148] Top shape: 1 5 1 1 (5)
I0709 13:07:09.832262 45093 net.cpp:148] Top shape: 1 5 1 1 (5)
I0709 13:07:09.832265 45093 net.cpp:156] Memory required for data: 602260
I0709 13:07:09.832269 45093 layer_factory.hpp:77] Creating layer labels_input_2_split
I0709 13:07:09.832275 45093 net.cpp:91] Creating Layer labels_input_2_split
I0709 13:07:09.832279 45093 net.cpp:435] labels_input_2_split <- labels
I0709 13:07:09.832285 45093 net.cpp:409] labels_input_2_split -> labels_input_2_split_0
I0709 13:07:09.832293 45093 net.cpp:409] labels_input_2_split -> labels_input_2_split_1
I0709 13:07:09.832301 45093 net.cpp:141] Setting up labels_input_2_split
I0709 13:07:09.832329 45093 net.cpp:148] Top shape: 1 1 1 1 (1)
I0709 13:07:09.832334 45093 net.cpp:148] Top shape: 1 1 1 1 (1)
I0709 13:07:09.832337 45093 net.cpp:156] Memory required for data: 602268
I0709 13:07:09.832340 45093 layer_factory.hpp:77] Creating layer bbox_targets_input_3_split
I0709 13:07:09.832346 45093 net.cpp:91] Creating Layer bbox_targets_input_3_split
I0709 13:07:09.832350 45093 net.cpp:435] bbox_targets_input_3_split <- bbox_targets
I0709 13:07:09.832355 45093 net.cpp:409] bbox_targets_input_3_split -> bbox_targets_input_3_split_0
I0709 13:07:09.832362 45093 net.cpp:409] bbox_targets_input_3_split -> bbox_targets_input_3_split_1
I0709 13:07:09.832381 45093 net.cpp:141] Setting up bbox_targets_input_3_split
I0709 13:07:09.832386 45093 net.cpp:148] Top shape: 1 8 1 1 (8)
I0709 13:07:09.832391 45093 net.cpp:148] Top shape: 1 8 1 1 (8)
I0709 13:07:09.832393 45093 net.cpp:156] Memory required for data: 602332
I0709 13:07:09.832397 45093 layer_factory.hpp:77] Creating layer bbox_loss_weights_input_4_split
I0709 13:07:09.832402 45093 net.cpp:91] Creating Layer bbox_loss_weights_input_4_split
I0709 13:07:09.832406 45093 net.cpp:435] bbox_loss_weights_input_4_split <- bbox_loss_weights
I0709 13:07:09.832412 45093 net.cpp:409] bbox_loss_weights_input_4_split -> bbox_loss_weights_input_4_split_0
I0709 13:07:09.832418 45093 net.cpp:409] bbox_loss_weights_input_4_split -> bbox_loss_weights_input_4_split_1
I0709 13:07:09.832425 45093 net.cpp:141] Setting up bbox_loss_weights_input_4_split
I0709 13:07:09.832429 45093 net.cpp:148] Top shape: 1 8 1 1 (8)
I0709 13:07:09.832433 45093 net.cpp:148] Top shape: 1 8 1 1 (8)
I0709 13:07:09.832437 45093 net.cpp:156] Memory required for data: 602396
I0709 13:07:09.832439 45093 layer_factory.hpp:77] Creating layer conv1
I0709 13:07:09.832448 45093 net.cpp:91] Creating Layer conv1
I0709 13:07:09.832453 45093 net.cpp:435] conv1 <- data
I0709 13:07:09.832458 45093 net.cpp:409] conv1 -> conv1
I0709 13:07:09.973085 45093 net.cpp:141] Setting up conv1
I0709 13:07:09.973114 45093 net.cpp:148] Top shape: 1 64 112 112 (802816)
I0709 13:07:09.973119 45093 net.cpp:156] Memory required for data: 3813660
I0709 13:07:09.973140 45093 layer_factory.hpp:77] Creating layer bn_conv1
I0709 13:07:09.973157 45093 net.cpp:91] Creating Layer bn_conv1
I0709 13:07:09.973163 45093 net.cpp:435] bn_conv1 <- conv1
I0709 13:07:09.973171 45093 net.cpp:396] bn_conv1 -> conv1 (in-place)
I0709 13:07:09.973198 45093 net.cpp:141] Setting up bn_conv1
I0709 13:07:09.973204 45093 net.cpp:148] Top shape: 1 64 112 112 (802816)
I0709 13:07:09.973207 45093 net.cpp:156] Memory required for data: 7024924
I0709 13:07:09.973218 45093 layer_factory.hpp:77] Creating layer scale_conv1
I0709 13:07:09.973227 45093 net.cpp:91] Creating Layer scale_conv1
I0709 13:07:09.973232 45093 net.cpp:435] scale_conv1 <- conv1
I0709 13:07:09.973237 45093 net.cpp:396] scale_conv1 -> conv1 (in-place)
I0709 13:07:09.973250 45093 layer_factory.hpp:77] Creating layer scale_conv1
I0709 13:07:09.973286 45093 net.cpp:141] Setting up scale_conv1
I0709 13:07:09.973292 45093 net.cpp:148] Top shape: 1 64 112 112 (802816)
I0709 13:07:09.973296 45093 net.cpp:156] Memory required for data: 10236188
I0709 13:07:09.973302 45093 layer_factory.hpp:77] Creating layer conv1_relu
I0709 13:07:09.973311 45093 net.cpp:91] Creating Layer conv1_relu
I0709 13:07:09.973315 45093 net.cpp:435] conv1_relu <- conv1
I0709 13:07:09.973320 45093 net.cpp:396] conv1_relu -> conv1 (in-place)
I0709 13:07:09.973628 45093 net.cpp:141] Setting up conv1_relu
I0709 13:07:09.973640 45093 net.cpp:148] Top shape: 1 64 112 112 (802816)
I0709 13:07:09.973644 45093 net.cpp:156] Memory required for data: 13447452
I0709 13:07:09.973649 45093 layer_factory.hpp:77] Creating layer pool1
I0709 13:07:09.973656 45093 net.cpp:91] Creating Layer pool1
I0709 13:07:09.973661 45093 net.cpp:435] pool1 <- conv1
I0709 13:07:09.973669 45093 net.cpp:409] pool1 -> pool1
I0709 13:07:09.973681 45093 net.cpp:141] Setting up pool1
I0709 13:07:09.973687 45093 net.cpp:148] Top shape: 1 64 56 56 (200704)
I0709 13:07:09.973690 45093 net.cpp:156] Memory required for data: 14250268
I0709 13:07:09.973724 45093 layer_factory.hpp:77] Creating layer pool1_pool1_0_split
I0709 13:07:09.973731 45093 net.cpp:91] Creating Layer pool1_pool1_0_split
I0709 13:07:09.973736 45093 net.cpp:435] pool1_pool1_0_split <- pool1
I0709 13:07:09.973742 45093 net.cpp:409] pool1_pool1_0_split -> pool1_pool1_0_split_0
I0709 13:07:09.973749 45093 net.cpp:409] pool1_pool1_0_split -> pool1_pool1_0_split_1
I0709 13:07:09.973757 45093 net.cpp:141] Setting up pool1_pool1_0_split
I0709 13:07:09.973763 45093 net.cpp:148] Top shape: 1 64 56 56 (200704)
I0709 13:07:09.973767 45093 net.cpp:148] Top shape: 1 64 56 56 (200704)
I0709 13:07:09.973770 45093 net.cpp:156] Memory required for data: 15855900
I0709 13:07:09.973784 45093 layer_factory.hpp:77] Creating layer res2a_branch1
I0709 13:07:09.973795 45093 net.cpp:91] Creating Layer res2a_branch1
I0709 13:07:09.973798 45093 net.cpp:435] res2a_branch1 <- pool1_pool1_0_split_0
I0709 13:07:09.973804 45093 net.cpp:409] res2a_branch1 -> res2a_branch1
I0709 13:07:09.974623 45093 net.cpp:141] Setting up res2a_branch1
I0709 13:07:09.974635 45093 net.cpp:148] Top shape: 1 256 56 56 (802816)
I0709 13:07:09.974639 45093 net.cpp:156] Memory required for data: 19067164
I0709 13:07:09.974645 45093 layer_factory.hpp:77] Creating layer bn2a_branch1
I0709 13:07:09.974654 45093 net.cpp:91] Creating Layer bn2a_branch1
I0709 13:07:09.974658 45093 net.cpp:435] bn2a_branch1 <- res2a_branch1
I0709 13:07:09.974664 45093 net.cpp:396] bn2a_branch1 -> res2a_branch1 (in-place)
I0709 13:07:09.974681 45093 net.cpp:141] Setting up bn2a_branch1
I0709 13:07:09.974686 45093 net.cpp:148] Top shape: 1 256 56 56 (802816)
I0709 13:07:09.974689 45093 net.cpp:156] Memory required for data: 22278428
I0709 13:07:09.974699 45093 layer_factory.hpp:77] Creating layer scale2a_branch1
I0709 13:07:09.974707 45093 net.cpp:91] Creating Layer scale2a_branch1
I0709 13:07:09.974710 45093 net.cpp:435] scale2a_branch1 <- res2a_branch1
I0709 13:07:09.974715 45093 net.cpp:396] scale2a_branch1 -> res2a_branch1 (in-place)
I0709 13:07:09.974725 45093 layer_factory.hpp:77] Creating layer scale2a_branch1
I0709 13:07:09.974745 45093 net.cpp:141] Setting up scale2a_branch1
I0709 13:07:09.974750 45093 net.cpp:148] Top shape: 1 256 56 56 (802816)
I0709 13:07:09.974753 45093 net.cpp:156] Memory required for data: 25489692
I0709 13:07:09.974758 45093 layer_factory.hpp:77] Creating layer res2a_branch2a
I0709 13:07:09.974767 45093 net.cpp:91] Creating Layer res2a_branch2a
I0709 13:07:09.974772 45093 net.cpp:435] res2a_branch2a <- pool1_pool1_0_split_1
I0709 13:07:09.974777 45093 net.cpp:409] res2a_branch2a -> res2a_branch2a
I0709 13:07:09.975495 45093 net.cpp:141] Setting up res2a_branch2a
I0709 13:07:09.975507 45093 net.cpp:148] Top shape: 1 64 56 56 (200704)
I0709 13:07:09.975512 45093 net.cpp:156] Memory required for data: 26292508
I0709 13:07:09.975517 45093 layer_factory.hpp:77] Creating layer bn2a_branch2a
I0709 13:07:09.975527 45093 net.cpp:91] Creating Layer bn2a_branch2a
I0709 13:07:09.975531 45093 net.cpp:435] bn2a_branch2a <- res2a_branch2a
I0709 13:07:09.975538 45093 net.cpp:396] bn2a_branch2a -> res2a_branch2a (in-place)
I0709 13:07:09.975553 45093 net.cpp:141] Setting up bn2a_branch2a
I0709 13:07:09.975559 45093 net.cpp:148] Top shape: 1 64 56 56 (200704)
I0709 13:07:09.975563 45093 net.cpp:156] Memory required for data: 27095324
I0709 13:07:09.975572 45093 layer_factory.hpp:77] Creating layer scale2a_branch2a
I0709 13:07:09.975580 45093 net.cpp:91] Creating Layer scale2a_branch2a
I0709 13:07:09.975584 45093 net.cpp:435] scale2a_branch2a <- res2a_branch2a
I0709 13:07:09.975589 45093 net.cpp:396] scale2a_branch2a -> res2a_branch2a (in-place)
I0709 13:07:09.975600 45093 layer_factory.hpp:77] Creating layer scale2a_branch2a
I0709 13:07:09.975617 45093 net.cpp:141] Setting up scale2a_branch2a
I0709 13:07:09.975622 45093 net.cpp:148] Top shape: 1 64 56 56 (200704)
I0709 13:07:09.975625 45093 net.cpp:156] Memory required for data: 27898140
I0709 13:07:09.975630 45093 layer_factory.hpp:77] Creating layer res2a_branch2a_relu
I0709 13:07:09.975648 45093 net.cpp:91] Creating Layer res2a_branch2a_relu
I0709 13:07:09.975652 45093 net.cpp:435] res2a_branch2a_relu <- res2a_branch2a
I0709 13:07:09.975657 45093 net.cpp:396] res2a_branch2a_relu -> res2a_branch2a (in-place)
I0709 13:07:09.975966 45093 net.cpp:141] Setting up res2a_branch2a_relu
I0709 13:07:09.975978 45093 net.cpp:148] Top shape: 1 64 56 56 (200704)
I0709 13:07:09.975982 45093 net.cpp:156] Memory required for data: 28700956
I0709 13:07:09.975986 45093 layer_factory.hpp:77] Creating layer res2a_branch2b
I0709 13:07:09.975996 45093 net.cpp:91] Creating Layer res2a_branch2b
I0709 13:07:09.976001 45093 net.cpp:435] res2a_branch2b <- res2a_branch2a
I0709 13:07:09.976007 45093 net.cpp:409] res2a_branch2b -> res2a_branch2b
I0709 13:07:09.976837 45093 net.cpp:141] Setting up res2a_branch2b
I0709 13:07:09.976850 45093 net.cpp:148] Top shape: 1 64 56 56 (200704)
I0709 13:07:09.976853 45093 net.cpp:156] Memory required for data: 29503772
I0709 13:07:09.976860 45093 layer_factory.hpp:77] Creating layer bn2a_branch2b
I0709 13:07:09.976868 45093 net.cpp:91] Creating Layer bn2a_branch2b
I0709 13:07:09.976872 45093 net.cpp:435] bn2a_branch2b <- res2a_branch2b
I0709 13:07:09.976878 45093 net.cpp:396] bn2a_branch2b -> res2a_branch2b (in-place)
I0709 13:07:09.976894 45093 net.cpp:141] Setting up bn2a_branch2b
I0709 13:07:09.976899 45093 net.cpp:148] Top shape: 1 64 56 56 (200704)
I0709 13:07:09.976903 45093 net.cpp:156] Memory required for data: 30306588
I0709 13:07:09.976910 45093 layer_factory.hpp:77] Creating layer scale2a_branch2b
I0709 13:07:09.976917 45093 net.cpp:91] Creating Layer scale2a_branch2b
I0709 13:07:09.976922 45093 net.cpp:435] scale2a_branch2b <- res2a_branch2b
I0709 13:07:09.976925 45093 net.cpp:396] scale2a_branch2b -> res2a_branch2b (in-place)
I0709 13:07:09.976935 45093 layer_factory.hpp:77] Creating layer scale2a_branch2b
I0709 13:07:09.976955 45093 net.cpp:141] Setting up scale2a_branch2b
I0709 13:07:09.976960 45093 net.cpp:148] Top shape: 1 64 56 56 (200704)
I0709 13:07:09.976963 45093 net.cpp:156] Memory required for data: 31109404
I0709 13:07:09.976969 45093 layer_factory.hpp:77] Creating layer res2a_branch2b_relu
I0709 13:07:09.976975 45093 net.cpp:91] Creating Layer res2a_branch2b_relu
I0709 13:07:09.976979 45093 net.cpp:435] res2a_branch2b_relu <- res2a_branch2b
I0709 13:07:09.976984 45093 net.cpp:396] res2a_branch2b_relu -> res2a_branch2b (in-place)
I0709 13:07:09.977179 45093 net.cpp:141] Setting up res2a_branch2b_relu
I0709 13:07:09.977187 45093 net.cpp:148] Top shape: 1 64 56 56 (200704)
I0709 13:07:09.977191 45093 net.cpp:156] Memory required for data: 31912220
I0709 13:07:09.977195 45093 layer_factory.hpp:77] Creating layer res2a_branch2c
I0709 13:07:09.977205 45093 net.cpp:91] Creating Layer res2a_branch2c
I0709 13:07:09.977208 45093 net.cpp:435] res2a_branch2c <- res2a_branch2b
I0709 13:07:09.977216 45093 net.cpp:409] res2a_branch2c -> res2a_branch2c
I0709 13:07:09.978024 45093 net.cpp:141] Setting up res2a_branch2c
I0709 13:07:09.978035 45093 net.cpp:148] Top shape: 1 256 56 56 (802816)
I0709 13:07:09.978039 45093 net.cpp:156] Memory required for data: 35123484
I0709 13:07:09.978045 45093 layer_factory.hpp:77] Creating layer bn2a_branch2c
I0709 13:07:09.978054 45093 net.cpp:91] Creating Layer bn2a_branch2c
I0709 13:07:09.978058 45093 net.cpp:435] bn2a_branch2c <- res2a_branch2c
I0709 13:07:09.978065 45093 net.cpp:396] bn2a_branch2c -> res2a_branch2c (in-place)
I0709 13:07:09.978081 45093 net.cpp:141] Setting up bn2a_branch2c
I0709 13:07:09.978086 45093 net.cpp:148] Top shape: 1 256 56 56 (802816)
I0709 13:07:09.978090 45093 net.cpp:156] Memory required for data: 38334748
I0709 13:07:09.978096 45093 layer_factory.hpp:77] Creating layer scale2a_branch2c
I0709 13:07:09.978103 45093 net.cpp:91] Creating Layer scale2a_branch2c
I0709 13:07:09.978107 45093 net.cpp:435] scale2a_branch2c <- res2a_branch2c
I0709 13:07:09.978112 45093 net.cpp:396] scale2a_branch2c -> res2a_branch2c (in-place)
I0709 13:07:09.978123 45093 layer_factory.hpp:77] Creating layer scale2a_branch2c
I0709 13:07:09.978154 45093 net.cpp:141] Setting up scale2a_branch2c
I0709 13:07:09.978160 45093 net.cpp:148] Top shape: 1 256 56 56 (802816)
I0709 13:07:09.978164 45093 net.cpp:156] Memory required for data: 41546012
I0709 13:07:09.978169 45093 layer_factory.hpp:77] Creating layer res2a
I0709 13:07:09.978176 45093 net.cpp:91] Creating Layer res2a
I0709 13:07:09.978181 45093 net.cpp:435] res2a <- res2a_branch1
I0709 13:07:09.978185 45093 net.cpp:435] res2a <- res2a_branch2c
I0709 13:07:09.978190 45093 net.cpp:409] res2a -> res2a
I0709 13:07:09.978199 45093 net.cpp:141] Setting up res2a
I0709 13:07:09.978204 45093 net.cpp:148] Top shape: 1 256 56 56 (802816)
I0709 13:07:09.978206 45093 net.cpp:156] Memory required for data: 44757276
I0709 13:07:09.978210 45093 layer_factory.hpp:77] Creating layer res2a_relu
I0709 13:07:09.978216 45093 net.cpp:91] Creating Layer res2a_relu
I0709 13:07:09.978220 45093 net.cpp:435] res2a_relu <- res2a
I0709 13:07:09.978224 45093 net.cpp:396] res2a_relu -> res2a (in-place)
I0709 13:07:09.978533 45093 net.cpp:141] Setting up res2a_relu
I0709 13:07:09.978544 45093 net.cpp:148] Top shape: 1 256 56 56 (802816)
I0709 13:07:09.978548 45093 net.cpp:156] Memory required for data: 47968540
I0709 13:07:09.978551 45093 layer_factory.hpp:77] Creating layer res2a_res2a_relu_0_split
I0709 13:07:09.978559 45093 net.cpp:91] Creating Layer res2a_res2a_relu_0_split
I0709 13:07:09.978564 45093 net.cpp:435] res2a_res2a_relu_0_split <- res2a
I0709 13:07:09.978569 45093 net.cpp:409] res2a_res2a_relu_0_split -> res2a_res2a_relu_0_split_0
I0709 13:07:09.978577 45093 net.cpp:409] res2a_res2a_relu_0_split -> res2a_res2a_relu_0_split_1
I0709 13:07:09.978585 45093 net.cpp:141] Setting up res2a_res2a_relu_0_split
I0709 13:07:09.978590 45093 net.cpp:148] Top shape: 1 256 56 56 (802816)
I0709 13:07:09.978593 45093 net.cpp:148] Top shape: 1 256 56 56 (802816)
I0709 13:07:09.978596 45093 net.cpp:156] Memory required for data: 54391068
I0709 13:07:09.978600 45093 layer_factory.hpp:77] Creating layer res2b_branch2a
I0709 13:07:09.978610 45093 net.cpp:91] Creating Layer res2b_branch2a
I0709 13:07:09.978613 45093 net.cpp:435] res2b_branch2a <- res2a_res2a_relu_0_split_0
I0709 13:07:09.978620 45093 net.cpp:409] res2b_branch2a -> res2b_branch2a
I0709 13:07:09.979454 45093 net.cpp:141] Setting up res2b_branch2a
I0709 13:07:09.979467 45093 net.cpp:148] Top shape: 1 64 56 56 (200704)
I0709 13:07:09.979470 45093 net.cpp:156] Memory required for data: 55193884
I0709 13:07:09.979477 45093 layer_factory.hpp:77] Creating layer bn2b_branch2a
I0709 13:07:09.979485 45093 net.cpp:91] Creating Layer bn2b_branch2a
I0709 13:07:09.979490 45093 net.cpp:435] bn2b_branch2a <- res2b_branch2a
I0709 13:07:09.979496 45093 net.cpp:396] bn2b_branch2a -> res2b_branch2a (in-place)
I0709 13:07:09.979511 45093 net.cpp:141] Setting up bn2b_branch2a
I0709 13:07:09.979516 45093 net.cpp:148] Top shape: 1 64 56 56 (200704)
I0709 13:07:09.979519 45093 net.cpp:156] Memory required for data: 55996700
I0709 13:07:09.979532 45093 layer_factory.hpp:77] Creating layer scale2b_branch2a
I0709 13:07:09.979538 45093 net.cpp:91] Creating Layer scale2b_branch2a
I0709 13:07:09.979542 45093 net.cpp:435] scale2b_branch2a <- res2b_branch2a
I0709 13:07:09.979547 45093 net.cpp:396] scale2b_branch2a -> res2b_branch2a (in-place)
I0709 13:07:09.979558 45093 layer_factory.hpp:77] Creating layer scale2b_branch2a
I0709 13:07:09.979583 45093 net.cpp:141] Setting up scale2b_branch2a
I0709 13:07:09.979589 45093 net.cpp:148] Top shape: 1 64 56 56 (200704)
I0709 13:07:09.979593 45093 net.cpp:156] Memory required for data: 56799516
I0709 13:07:09.979598 45093 layer_factory.hpp:77] Creating layer res2b_branch2a_relu
I0709 13:07:09.979605 45093 net.cpp:91] Creating Layer res2b_branch2a_relu
I0709 13:07:09.979609 45093 net.cpp:435] res2b_branch2a_relu <- res2b_branch2a
I0709 13:07:09.979614 45093 net.cpp:396] res2b_branch2a_relu -> res2b_branch2a (in-place)
I0709 13:07:09.979930 45093 net.cpp:141] Setting up res2b_branch2a_relu
I0709 13:07:09.979941 45093 net.cpp:148] Top shape: 1 64 56 56 (200704)
I0709 13:07:09.979956 45093 net.cpp:156] Memory required for data: 57602332
I0709 13:07:09.979961 45093 layer_factory.hpp:77] Creating layer res2b_branch2b
I0709 13:07:09.979972 45093 net.cpp:91] Creating Layer res2b_branch2b
I0709 13:07:09.979977 45093 net.cpp:435] res2b_branch2b <- res2b_branch2a
I0709 13:07:09.979984 45093 net.cpp:409] res2b_branch2b -> res2b_branch2b
I0709 13:07:09.980895 45093 net.cpp:141] Setting up res2b_branch2b
I0709 13:07:09.980906 45093 net.cpp:148] Top shape: 1 64 56 56 (200704)
I0709 13:07:09.980911 45093 net.cpp:156] Memory required for data: 58405148
I0709 13:07:09.980916 45093 layer_factory.hpp:77] Creating layer bn2b_branch2b
I0709 13:07:09.980926 45093 net.cpp:91] Creating Layer bn2b_branch2b
I0709 13:07:09.980931 45093 net.cpp:435] bn2b_branch2b <- res2b_branch2b
I0709 13:07:09.980937 45093 net.cpp:396] bn2b_branch2b -> res2b_branch2b (in-place)
I0709 13:07:09.980953 45093 net.cpp:141] Setting up bn2b_branch2b
I0709 13:07:09.980958 45093 net.cpp:148] Top shape: 1 64 56 56 (200704)
I0709 13:07:09.980962 45093 net.cpp:156] Memory required for data: 59207964
I0709 13:07:09.980968 45093 layer_factory.hpp:77] Creating layer scale2b_branch2b
I0709 13:07:09.980975 45093 net.cpp:91] Creating Layer scale2b_branch2b
I0709 13:07:09.980979 45093 net.cpp:435] scale2b_branch2b <- res2b_branch2b
I0709 13:07:09.980984 45093 net.cpp:396] scale2b_branch2b -> res2b_branch2b (in-place)
I0709 13:07:09.980995 45093 layer_factory.hpp:77] Creating layer scale2b_branch2b
I0709 13:07:09.981025 45093 net.cpp:141] Setting up scale2b_branch2b
I0709 13:07:09.981031 45093 net.cpp:148] Top shape: 1 64 56 56 (200704)
I0709 13:07:09.981034 45093 net.cpp:156] Memory required for data: 60010780
I0709 13:07:09.981040 45093 layer_factory.hpp:77] Creating layer res2b_branch2b_relu
I0709 13:07:09.981046 45093 net.cpp:91] Creating Layer res2b_branch2b_relu
I0709 13:07:09.981050 45093 net.cpp:435] res2b_branch2b_relu <- res2b_branch2b
I0709 13:07:09.981055 45093 net.cpp:396] res2b_branch2b_relu -> res2b_branch2b (in-place)
I0709 13:07:09.981253 45093 net.cpp:141] Setting up res2b_branch2b_relu
I0709 13:07:09.981263 45093 net.cpp:148] Top shape: 1 64 56 56 (200704)
I0709 13:07:09.981266 45093 net.cpp:156] Memory required for data: 60813596
I0709 13:07:09.981271 45093 layer_factory.hpp:77] Creating layer res2b_branch2c
I0709 13:07:09.981279 45093 net.cpp:91] Creating Layer res2b_branch2c
I0709 13:07:09.981283 45093 net.cpp:435] res2b_branch2c <- res2b_branch2b
I0709 13:07:09.981289 45093 net.cpp:409] res2b_branch2c -> res2b_branch2c
I0709 13:07:09.982166 45093 net.cpp:141] Setting up res2b_branch2c
I0709 13:07:09.982177 45093 net.cpp:148] Top shape: 1 256 56 56 (802816)
I0709 13:07:09.982182 45093 net.cpp:156] Memory required for data: 64024860
I0709 13:07:09.982187 45093 layer_factory.hpp:77] Creating layer bn2b_branch2c
I0709 13:07:09.982197 45093 net.cpp:91] Creating Layer bn2b_branch2c
I0709 13:07:09.982200 45093 net.cpp:435] bn2b_branch2c <- res2b_branch2c
I0709 13:07:09.982206 45093 net.cpp:396] bn2b_branch2c -> res2b_branch2c (in-place)
I0709 13:07:09.982229 45093 net.cpp:141] Setting up bn2b_branch2c
I0709 13:07:09.982234 45093 net.cpp:148] Top shape: 1 256 56 56 (802816)
I0709 13:07:09.982237 45093 net.cpp:156] Memory required for data: 67236124
I0709 13:07:09.982244 45093 layer_factory.hpp:77] Creating layer scale2b_branch2c
I0709 13:07:09.982251 45093 net.cpp:91] Creating Layer scale2b_branch2c
I0709 13:07:09.982255 45093 net.cpp:435] scale2b_branch2c <- res2b_branch2c
I0709 13:07:09.982261 45093 net.cpp:396] scale2b_branch2c -> res2b_branch2c (in-place)
I0709 13:07:09.982272 45093 layer_factory.hpp:77] Creating layer scale2b_branch2c
I0709 13:07:09.982301 45093 net.cpp:141] Setting up scale2b_branch2c
I0709 13:07:09.982306 45093 net.cpp:148] Top shape: 1 256 56 56 (802816)
I0709 13:07:09.982311 45093 net.cpp:156] Memory required for data: 70447388
I0709 13:07:09.982316 45093 layer_factory.hpp:77] Creating layer res2b
I0709 13:07:09.982322 45093 net.cpp:91] Creating Layer res2b
I0709 13:07:09.982338 45093 net.cpp:435] res2b <- res2a_res2a_relu_0_split_1
I0709 13:07:09.982344 45093 net.cpp:435] res2b <- res2b_branch2c
I0709 13:07:09.982349 45093 net.cpp:409] res2b -> res2b
I0709 13:07:09.982357 45093 net.cpp:141] Setting up res2b
I0709 13:07:09.982362 45093 net.cpp:148] Top shape: 1 256 56 56 (802816)
I0709 13:07:09.982365 45093 net.cpp:156] Memory required for data: 73658652
I0709 13:07:09.982369 45093 layer_factory.hpp:77] Creating layer res2b_relu
I0709 13:07:09.982375 45093 net.cpp:91] Creating Layer res2b_relu
I0709 13:07:09.982378 45093 net.cpp:435] res2b_relu <- res2b
I0709 13:07:09.982383 45093 net.cpp:396] res2b_relu -> res2b (in-place)
I0709 13:07:09.982697 45093 net.cpp:141] Setting up res2b_relu
I0709 13:07:09.982709 45093 net.cpp:148] Top shape: 1 256 56 56 (802816)
I0709 13:07:09.982712 45093 net.cpp:156] Memory required for data: 76869916
I0709 13:07:09.982717 45093 layer_factory.hpp:77] Creating layer res2b_res2b_relu_0_split
I0709 13:07:09.982724 45093 net.cpp:91] Creating Layer res2b_res2b_relu_0_split
I0709 13:07:09.982728 45093 net.cpp:435] res2b_res2b_relu_0_split <- res2b
I0709 13:07:09.982734 45093 net.cpp:409] res2b_res2b_relu_0_split -> res2b_res2b_relu_0_split_0
I0709 13:07:09.982741 45093 net.cpp:409] res2b_res2b_relu_0_split -> res2b_res2b_relu_0_split_1
I0709 13:07:09.982749 45093 net.cpp:141] Setting up res2b_res2b_relu_0_split
I0709 13:07:09.982753 45093 net.cpp:148] Top shape: 1 256 56 56 (802816)
I0709 13:07:09.982758 45093 net.cpp:148] Top shape: 1 256 56 56 (802816)
I0709 13:07:09.982761 45093 net.cpp:156] Memory required for data: 83292444
I0709 13:07:09.982764 45093 layer_factory.hpp:77] Creating layer res2c_branch2a
I0709 13:07:09.982774 45093 net.cpp:91] Creating Layer res2c_branch2a
I0709 13:07:09.982777 45093 net.cpp:435] res2c_branch2a <- res2b_res2b_relu_0_split_0
I0709 13:07:09.982784 45093 net.cpp:409] res2c_branch2a -> res2c_branch2a
I0709 13:07:09.983655 45093 net.cpp:141] Setting up res2c_branch2a
I0709 13:07:09.983669 45093 net.cpp:148] Top shape: 1 64 56 56 (200704)
I0709 13:07:09.983671 45093 net.cpp:156] Memory required for data: 84095260
I0709 13:07:09.983678 45093 layer_factory.hpp:77] Creating layer bn2c_branch2a
I0709 13:07:09.983686 45093 net.cpp:91] Creating Layer bn2c_branch2a
I0709 13:07:09.983691 45093 net.cpp:435] bn2c_branch2a <- res2c_branch2a
I0709 13:07:09.983697 45093 net.cpp:396] bn2c_branch2a -> res2c_branch2a (in-place)
I0709 13:07:09.983721 45093 net.cpp:141] Setting up bn2c_branch2a
I0709 13:07:09.983726 45093 net.cpp:148] Top shape: 1 64 56 56 (200704)
I0709 13:07:09.983729 45093 net.cpp:156] Memory required for data: 84898076
I0709 13:07:09.983736 45093 layer_factory.hpp:77] Creating layer scale2c_branch2a
I0709 13:07:09.983744 45093 net.cpp:91] Creating Layer scale2c_branch2a
I0709 13:07:09.983748 45093 net.cpp:435] scale2c_branch2a <- res2c_branch2a
I0709 13:07:09.983753 45093 net.cpp:396] scale2c_branch2a -> res2c_branch2a (in-place)
I0709 13:07:09.983763 45093 layer_factory.hpp:77] Creating layer scale2c_branch2a
I0709 13:07:09.983793 45093 net.cpp:141] Setting up scale2c_branch2a
I0709 13:07:09.983798 45093 net.cpp:148] Top shape: 1 64 56 56 (200704)
I0709 13:07:09.983803 45093 net.cpp:156] Memory required for data: 85700892
I0709 13:07:09.983808 45093 layer_factory.hpp:77] Creating layer res2c_branch2a_relu
I0709 13:07:09.983814 45093 net.cpp:91] Creating Layer res2c_branch2a_relu
I0709 13:07:09.983817 45093 net.cpp:435] res2c_branch2a_relu <- res2c_branch2a
I0709 13:07:09.983822 45093 net.cpp:396] res2c_branch2a_relu -> res2c_branch2a (in-place)
I0709 13:07:09.984138 45093 net.cpp:141] Setting up res2c_branch2a_relu
I0709 13:07:09.984150 45093 net.cpp:148] Top shape: 1 64 56 56 (200704)
I0709 13:07:09.984154 45093 net.cpp:156] Memory required for data: 86503708
I0709 13:07:09.984158 45093 layer_factory.hpp:77] Creating layer res2c_branch2b
I0709 13:07:09.984169 45093 net.cpp:91] Creating Layer res2c_branch2b
I0709 13:07:09.984172 45093 net.cpp:435] res2c_branch2b <- res2c_branch2a
I0709 13:07:09.984179 45093 net.cpp:409] res2c_branch2b -> res2c_branch2b
I0709 13:07:09.985110 45093 net.cpp:141] Setting up res2c_branch2b
I0709 13:07:09.985123 45093 net.cpp:148] Top shape: 1 64 56 56 (200704)
I0709 13:07:09.985127 45093 net.cpp:156] Memory required for data: 87306524
I0709 13:07:09.985133 45093 layer_factory.hpp:77] Creating layer bn2c_branch2b
I0709 13:07:09.985142 45093 net.cpp:91] Creating Layer bn2c_branch2b
I0709 13:07:09.985146 45093 net.cpp:435] bn2c_branch2b <- res2c_branch2b
I0709 13:07:09.985153 45093 net.cpp:396] bn2c_branch2b -> res2c_branch2b (in-place)
I0709 13:07:09.985177 45093 net.cpp:141] Setting up bn2c_branch2b
I0709 13:07:09.985183 45093 net.cpp:148] Top shape: 1 64 56 56 (200704)
I0709 13:07:09.985185 45093 net.cpp:156] Memory required for data: 88109340
I0709 13:07:09.985193 45093 layer_factory.hpp:77] Creating layer scale2c_branch2b
I0709 13:07:09.985201 45093 net.cpp:91] Creating Layer scale2c_branch2b
I0709 13:07:09.985205 45093 net.cpp:435] scale2c_branch2b <- res2c_branch2b
I0709 13:07:09.985210 45093 net.cpp:396] scale2c_branch2b -> res2c_branch2b (in-place)
I0709 13:07:09.985220 45093 layer_factory.hpp:77] Creating layer scale2c_branch2b
I0709 13:07:09.985251 45093 net.cpp:141] Setting up scale2c_branch2b
I0709 13:07:09.985256 45093 net.cpp:148] Top shape: 1 64 56 56 (200704)
I0709 13:07:09.985260 45093 net.cpp:156] Memory required for data: 88912156
I0709 13:07:09.985265 45093 layer_factory.hpp:77] Creating layer res2c_branch2b_relu
I0709 13:07:09.985271 45093 net.cpp:91] Creating Layer res2c_branch2b_relu
I0709 13:07:09.985275 45093 net.cpp:435] res2c_branch2b_relu <- res2c_branch2b
I0709 13:07:09.985280 45093 net.cpp:396] res2c_branch2b_relu -> res2c_branch2b (in-place)
I0709 13:07:09.985481 45093 net.cpp:141] Setting up res2c_branch2b_relu
I0709 13:07:09.985491 45093 net.cpp:148] Top shape: 1 64 56 56 (200704)
I0709 13:07:09.985493 45093 net.cpp:156] Memory required for data: 89714972
I0709 13:07:09.985497 45093 layer_factory.hpp:77] Creating layer res2c_branch2c
I0709 13:07:09.985507 45093 net.cpp:91] Creating Layer res2c_branch2c
I0709 13:07:09.985512 45093 net.cpp:435] res2c_branch2c <- res2c_branch2b
I0709 13:07:09.985517 45093 net.cpp:409] res2c_branch2c -> res2c_branch2c
I0709 13:07:09.986385 45093 net.cpp:141] Setting up res2c_branch2c
I0709 13:07:09.986397 45093 net.cpp:148] Top shape: 1 256 56 56 (802816)
I0709 13:07:09.986402 45093 net.cpp:156] Memory required for data: 92926236
I0709 13:07:09.986407 45093 layer_factory.hpp:77] Creating layer bn2c_branch2c
I0709 13:07:09.986415 45093 net.cpp:91] Creating Layer bn2c_branch2c
I0709 13:07:09.986420 45093 net.cpp:435] bn2c_branch2c <- res2c_branch2c
I0709 13:07:09.986425 45093 net.cpp:396] bn2c_branch2c -> res2c_branch2c (in-place)
I0709 13:07:09.986449 45093 net.cpp:141] Setting up bn2c_branch2c
I0709 13:07:09.986454 45093 net.cpp:148] Top shape: 1 256 56 56 (802816)
I0709 13:07:09.986456 45093 net.cpp:156] Memory required for data: 96137500
I0709 13:07:09.986466 45093 layer_factory.hpp:77] Creating layer scale2c_branch2c
I0709 13:07:09.986474 45093 net.cpp:91] Creating Layer scale2c_branch2c
I0709 13:07:09.986477 45093 net.cpp:435] scale2c_branch2c <- res2c_branch2c
I0709 13:07:09.986482 45093 net.cpp:396] scale2c_branch2c -> res2c_branch2c (in-place)
I0709 13:07:09.986493 45093 layer_factory.hpp:77] Creating layer scale2c_branch2c
I0709 13:07:09.986522 45093 net.cpp:141] Setting up scale2c_branch2c
I0709 13:07:09.986527 45093 net.cpp:148] Top shape: 1 256 56 56 (802816)
I0709 13:07:09.986531 45093 net.cpp:156] Memory required for data: 99348764
I0709 13:07:09.986536 45093 layer_factory.hpp:77] Creating layer res2c
I0709 13:07:09.986541 45093 net.cpp:91] Creating Layer res2c
I0709 13:07:09.986546 45093 net.cpp:435] res2c <- res2b_res2b_relu_0_split_1
I0709 13:07:09.986549 45093 net.cpp:435] res2c <- res2c_branch2c
I0709 13:07:09.986554 45093 net.cpp:409] res2c -> res2c
I0709 13:07:09.986560 45093 net.cpp:141] Setting up res2c
I0709 13:07:09.986565 45093 net.cpp:148] Top shape: 1 256 56 56 (802816)
I0709 13:07:09.986568 45093 net.cpp:156] Memory required for data: 102560028
I0709 13:07:09.986585 45093 layer_factory.hpp:77] Creating layer res2c_relu
I0709 13:07:09.986593 45093 net.cpp:91] Creating Layer res2c_relu
I0709 13:07:09.986595 45093 net.cpp:435] res2c_relu <- res2c
I0709 13:07:09.986600 45093 net.cpp:396] res2c_relu -> res2c (in-place)
I0709 13:07:09.986915 45093 net.cpp:141] Setting up res2c_relu
I0709 13:07:09.986927 45093 net.cpp:148] Top shape: 1 256 56 56 (802816)
I0709 13:07:09.986929 45093 net.cpp:156] Memory required for data: 105771292
I0709 13:07:09.986934 45093 layer_factory.hpp:77] Creating layer res2c_res2c_relu_0_split
I0709 13:07:09.986941 45093 net.cpp:91] Creating Layer res2c_res2c_relu_0_split
I0709 13:07:09.986945 45093 net.cpp:435] res2c_res2c_relu_0_split <- res2c
I0709 13:07:09.986951 45093 net.cpp:409] res2c_res2c_relu_0_split -> res2c_res2c_relu_0_split_0
I0709 13:07:09.986959 45093 net.cpp:409] res2c_res2c_relu_0_split -> res2c_res2c_relu_0_split_1
I0709 13:07:09.986966 45093 net.cpp:141] Setting up res2c_res2c_relu_0_split
I0709 13:07:09.986971 45093 net.cpp:148] Top shape: 1 256 56 56 (802816)
I0709 13:07:09.986975 45093 net.cpp:148] Top shape: 1 256 56 56 (802816)
I0709 13:07:09.986979 45093 net.cpp:156] Memory required for data: 112193820
I0709 13:07:09.986981 45093 layer_factory.hpp:77] Creating layer res3a_branch1
I0709 13:07:09.986991 45093 net.cpp:91] Creating Layer res3a_branch1
I0709 13:07:09.986995 45093 net.cpp:435] res3a_branch1 <- res2c_res2c_relu_0_split_0
I0709 13:07:09.987000 45093 net.cpp:409] res3a_branch1 -> res3a_branch1
I0709 13:07:09.987985 45093 net.cpp:141] Setting up res3a_branch1
I0709 13:07:09.987998 45093 net.cpp:148] Top shape: 1 512 28 28 (401408)
I0709 13:07:09.988000 45093 net.cpp:156] Memory required for data: 113799452
I0709 13:07:09.988008 45093 layer_factory.hpp:77] Creating layer bn3a_branch1
I0709 13:07:09.988015 45093 net.cpp:91] Creating Layer bn3a_branch1
I0709 13:07:09.988020 45093 net.cpp:435] bn3a_branch1 <- res3a_branch1
I0709 13:07:09.988026 45093 net.cpp:396] bn3a_branch1 -> res3a_branch1 (in-place)
I0709 13:07:09.988044 45093 net.cpp:141] Setting up bn3a_branch1
I0709 13:07:09.988049 45093 net.cpp:148] Top shape: 1 512 28 28 (401408)
I0709 13:07:09.988051 45093 net.cpp:156] Memory required for data: 115405084
I0709 13:07:09.988059 45093 layer_factory.hpp:77] Creating layer scale3a_branch1
I0709 13:07:09.988065 45093 net.cpp:91] Creating Layer scale3a_branch1
I0709 13:07:09.988070 45093 net.cpp:435] scale3a_branch1 <- res3a_branch1
I0709 13:07:09.988075 45093 net.cpp:396] scale3a_branch1 -> res3a_branch1 (in-place)
I0709 13:07:09.988085 45093 layer_factory.hpp:77] Creating layer scale3a_branch1
I0709 13:07:09.988104 45093 net.cpp:141] Setting up scale3a_branch1
I0709 13:07:09.988109 45093 net.cpp:148] Top shape: 1 512 28 28 (401408)
I0709 13:07:09.988112 45093 net.cpp:156] Memory required for data: 117010716
I0709 13:07:09.988118 45093 layer_factory.hpp:77] Creating layer res3a_branch2a
I0709 13:07:09.988127 45093 net.cpp:91] Creating Layer res3a_branch2a
I0709 13:07:09.988131 45093 net.cpp:435] res3a_branch2a <- res2c_res2c_relu_0_split_1
I0709 13:07:09.988137 45093 net.cpp:409] res3a_branch2a -> res3a_branch2a
I0709 13:07:09.989056 45093 net.cpp:141] Setting up res3a_branch2a
I0709 13:07:09.989068 45093 net.cpp:148] Top shape: 1 128 28 28 (100352)
I0709 13:07:09.989073 45093 net.cpp:156] Memory required for data: 117412124
I0709 13:07:09.989078 45093 layer_factory.hpp:77] Creating layer bn3a_branch2a
I0709 13:07:09.989087 45093 net.cpp:91] Creating Layer bn3a_branch2a
I0709 13:07:09.989092 45093 net.cpp:435] bn3a_branch2a <- res3a_branch2a
I0709 13:07:09.989099 45093 net.cpp:396] bn3a_branch2a -> res3a_branch2a (in-place)
I0709 13:07:09.989114 45093 net.cpp:141] Setting up bn3a_branch2a
I0709 13:07:09.989120 45093 net.cpp:148] Top shape: 1 128 28 28 (100352)
I0709 13:07:09.989121 45093 net.cpp:156] Memory required for data: 117813532
I0709 13:07:09.989130 45093 layer_factory.hpp:77] Creating layer scale3a_branch2a
I0709 13:07:09.989136 45093 net.cpp:91] Creating Layer scale3a_branch2a
I0709 13:07:09.989152 45093 net.cpp:435] scale3a_branch2a <- res3a_branch2a
I0709 13:07:09.989158 45093 net.cpp:396] scale3a_branch2a -> res3a_branch2a (in-place)
I0709 13:07:09.989168 45093 layer_factory.hpp:77] Creating layer scale3a_branch2a
I0709 13:07:09.989186 45093 net.cpp:141] Setting up scale3a_branch2a
I0709 13:07:09.989192 45093 net.cpp:148] Top shape: 1 128 28 28 (100352)
I0709 13:07:09.989193 45093 net.cpp:156] Memory required for data: 118214940
I0709 13:07:09.989199 45093 layer_factory.hpp:77] Creating layer res3a_branch2a_relu
I0709 13:07:09.989204 45093 net.cpp:91] Creating Layer res3a_branch2a_relu
I0709 13:07:09.989208 45093 net.cpp:435] res3a_branch2a_relu <- res3a_branch2a
I0709 13:07:09.989212 45093 net.cpp:396] res3a_branch2a_relu -> res3a_branch2a (in-place)
I0709 13:07:09.989528 45093 net.cpp:141] Setting up res3a_branch2a_relu
I0709 13:07:09.989540 45093 net.cpp:148] Top shape: 1 128 28 28 (100352)
I0709 13:07:09.989543 45093 net.cpp:156] Memory required for data: 118616348
I0709 13:07:09.989547 45093 layer_factory.hpp:77] Creating layer res3a_branch2b
I0709 13:07:09.989557 45093 net.cpp:91] Creating Layer res3a_branch2b
I0709 13:07:09.989562 45093 net.cpp:435] res3a_branch2b <- res3a_branch2a
I0709 13:07:09.989568 45093 net.cpp:409] res3a_branch2b -> res3a_branch2b
I0709 13:07:09.990485 45093 net.cpp:141] Setting up res3a_branch2b
I0709 13:07:09.990496 45093 net.cpp:148] Top shape: 1 128 28 28 (100352)
I0709 13:07:09.990500 45093 net.cpp:156] Memory required for data: 119017756
I0709 13:07:09.990506 45093 layer_factory.hpp:77] Creating layer bn3a_branch2b
I0709 13:07:09.990516 45093 net.cpp:91] Creating Layer bn3a_branch2b
I0709 13:07:09.990521 45093 net.cpp:435] bn3a_branch2b <- res3a_branch2b
I0709 13:07:09.990527 45093 net.cpp:396] bn3a_branch2b -> res3a_branch2b (in-place)
I0709 13:07:09.990542 45093 net.cpp:141] Setting up bn3a_branch2b
I0709 13:07:09.990547 45093 net.cpp:148] Top shape: 1 128 28 28 (100352)
I0709 13:07:09.990550 45093 net.cpp:156] Memory required for data: 119419164
I0709 13:07:09.990557 45093 layer_factory.hpp:77] Creating layer scale3a_branch2b
I0709 13:07:09.990564 45093 net.cpp:91] Creating Layer scale3a_branch2b
I0709 13:07:09.990568 45093 net.cpp:435] scale3a_branch2b <- res3a_branch2b
I0709 13:07:09.990573 45093 net.cpp:396] scale3a_branch2b -> res3a_branch2b (in-place)
I0709 13:07:09.990583 45093 layer_factory.hpp:77] Creating layer scale3a_branch2b
I0709 13:07:09.990600 45093 net.cpp:141] Setting up scale3a_branch2b
I0709 13:07:09.990605 45093 net.cpp:148] Top shape: 1 128 28 28 (100352)
I0709 13:07:09.990608 45093 net.cpp:156] Memory required for data: 119820572
I0709 13:07:09.990614 45093 layer_factory.hpp:77] Creating layer res3a_branch2b_relu
I0709 13:07:09.990620 45093 net.cpp:91] Creating Layer res3a_branch2b_relu
I0709 13:07:09.990623 45093 net.cpp:435] res3a_branch2b_relu <- res3a_branch2b
I0709 13:07:09.990629 45093 net.cpp:396] res3a_branch2b_relu -> res3a_branch2b (in-place)
I0709 13:07:09.990938 45093 net.cpp:141] Setting up res3a_branch2b_relu
I0709 13:07:09.990950 45093 net.cpp:148] Top shape: 1 128 28 28 (100352)
I0709 13:07:09.990953 45093 net.cpp:156] Memory required for data: 120221980
I0709 13:07:09.990957 45093 layer_factory.hpp:77] Creating layer res3a_branch2c
I0709 13:07:09.990967 45093 net.cpp:91] Creating Layer res3a_branch2c
I0709 13:07:09.990972 45093 net.cpp:435] res3a_branch2c <- res3a_branch2b
I0709 13:07:09.990978 45093 net.cpp:409] res3a_branch2c -> res3a_branch2c
I0709 13:07:09.991966 45093 net.cpp:141] Setting up res3a_branch2c
I0709 13:07:09.991977 45093 net.cpp:148] Top shape: 1 512 28 28 (401408)
I0709 13:07:09.991981 45093 net.cpp:156] Memory required for data: 121827612
I0709 13:07:09.991987 45093 layer_factory.hpp:77] Creating layer bn3a_branch2c
I0709 13:07:09.991997 45093 net.cpp:91] Creating Layer bn3a_branch2c
I0709 13:07:09.992002 45093 net.cpp:435] bn3a_branch2c <- res3a_branch2c
I0709 13:07:09.992007 45093 net.cpp:396] bn3a_branch2c -> res3a_branch2c (in-place)
I0709 13:07:09.992022 45093 net.cpp:141] Setting up bn3a_branch2c
I0709 13:07:09.992038 45093 net.cpp:148] Top shape: 1 512 28 28 (401408)
I0709 13:07:09.992043 45093 net.cpp:156] Memory required for data: 123433244
I0709 13:07:09.992050 45093 layer_factory.hpp:77] Creating layer scale3a_branch2c
I0709 13:07:09.992058 45093 net.cpp:91] Creating Layer scale3a_branch2c
I0709 13:07:09.992061 45093 net.cpp:435] scale3a_branch2c <- res3a_branch2c
I0709 13:07:09.992066 45093 net.cpp:396] scale3a_branch2c -> res3a_branch2c (in-place)
I0709 13:07:09.992077 45093 layer_factory.hpp:77] Creating layer scale3a_branch2c
I0709 13:07:09.992094 45093 net.cpp:141] Setting up scale3a_branch2c
I0709 13:07:09.992100 45093 net.cpp:148] Top shape: 1 512 28 28 (401408)
I0709 13:07:09.992102 45093 net.cpp:156] Memory required for data: 125038876
I0709 13:07:09.992107 45093 layer_factory.hpp:77] Creating layer res3a
I0709 13:07:09.992115 45093 net.cpp:91] Creating Layer res3a
I0709 13:07:09.992118 45093 net.cpp:435] res3a <- res3a_branch1
I0709 13:07:09.992122 45093 net.cpp:435] res3a <- res3a_branch2c
I0709 13:07:09.992127 45093 net.cpp:409] res3a -> res3a
I0709 13:07:09.992136 45093 net.cpp:141] Setting up res3a
I0709 13:07:09.992139 45093 net.cpp:148] Top shape: 1 512 28 28 (401408)
I0709 13:07:09.992142 45093 net.cpp:156] Memory required for data: 126644508
I0709 13:07:09.992146 45093 layer_factory.hpp:77] Creating layer res3a_relu
I0709 13:07:09.992151 45093 net.cpp:91] Creating Layer res3a_relu
I0709 13:07:09.992156 45093 net.cpp:435] res3a_relu <- res3a
I0709 13:07:09.992159 45093 net.cpp:396] res3a_relu -> res3a (in-place)
I0709 13:07:09.992398 45093 net.cpp:141] Setting up res3a_relu
I0709 13:07:09.992408 45093 net.cpp:148] Top shape: 1 512 28 28 (401408)
I0709 13:07:09.992411 45093 net.cpp:156] Memory required for data: 128250140
I0709 13:07:09.992416 45093 layer_factory.hpp:77] Creating layer res3a_res3a_relu_0_split
I0709 13:07:09.992424 45093 net.cpp:91] Creating Layer res3a_res3a_relu_0_split
I0709 13:07:09.992427 45093 net.cpp:435] res3a_res3a_relu_0_split <- res3a
I0709 13:07:09.992434 45093 net.cpp:409] res3a_res3a_relu_0_split -> res3a_res3a_relu_0_split_0
I0709 13:07:09.992440 45093 net.cpp:409] res3a_res3a_relu_0_split -> res3a_res3a_relu_0_split_1
I0709 13:07:09.992449 45093 net.cpp:141] Setting up res3a_res3a_relu_0_split
I0709 13:07:09.992454 45093 net.cpp:148] Top shape: 1 512 28 28 (401408)
I0709 13:07:09.992457 45093 net.cpp:148] Top shape: 1 512 28 28 (401408)
I0709 13:07:09.992460 45093 net.cpp:156] Memory required for data: 131461404
I0709 13:07:09.992463 45093 layer_factory.hpp:77] Creating layer res3b_branch2a
I0709 13:07:09.992473 45093 net.cpp:91] Creating Layer res3b_branch2a
I0709 13:07:09.992477 45093 net.cpp:435] res3b_branch2a <- res3a_res3a_relu_0_split_0
I0709 13:07:09.992482 45093 net.cpp:409] res3b_branch2a -> res3b_branch2a
I0709 13:07:09.993470 45093 net.cpp:141] Setting up res3b_branch2a
I0709 13:07:09.993482 45093 net.cpp:148] Top shape: 1 128 28 28 (100352)
I0709 13:07:09.993486 45093 net.cpp:156] Memory required for data: 131862812
I0709 13:07:09.993492 45093 layer_factory.hpp:77] Creating layer bn3b_branch2a
I0709 13:07:09.993500 45093 net.cpp:91] Creating Layer bn3b_branch2a
I0709 13:07:09.993505 45093 net.cpp:435] bn3b_branch2a <- res3b_branch2a
I0709 13:07:09.993510 45093 net.cpp:396] bn3b_branch2a -> res3b_branch2a (in-place)
I0709 13:07:09.993526 45093 net.cpp:141] Setting up bn3b_branch2a
I0709 13:07:09.993531 45093 net.cpp:148] Top shape: 1 128 28 28 (100352)
I0709 13:07:09.993535 45093 net.cpp:156] Memory required for data: 132264220
I0709 13:07:09.993542 45093 layer_factory.hpp:77] Creating layer scale3b_branch2a
I0709 13:07:09.993551 45093 net.cpp:91] Creating Layer scale3b_branch2a
I0709 13:07:09.993553 45093 net.cpp:435] scale3b_branch2a <- res3b_branch2a
I0709 13:07:09.993559 45093 net.cpp:396] scale3b_branch2a -> res3b_branch2a (in-place)
I0709 13:07:09.993569 45093 layer_factory.hpp:77] Creating layer scale3b_branch2a
I0709 13:07:09.993584 45093 net.cpp:141] Setting up scale3b_branch2a
I0709 13:07:09.993589 45093 net.cpp:148] Top shape: 1 128 28 28 (100352)
I0709 13:07:09.993604 45093 net.cpp:156] Memory required for data: 132665628
I0709 13:07:09.993612 45093 layer_factory.hpp:77] Creating layer res3b_branch2a_relu
I0709 13:07:09.993618 45093 net.cpp:91] Creating Layer res3b_branch2a_relu
I0709 13:07:09.993621 45093 net.cpp:435] res3b_branch2a_relu <- res3b_branch2a
I0709 13:07:09.993626 45093 net.cpp:396] res3b_branch2a_relu -> res3b_branch2a (in-place)
I0709 13:07:09.993945 45093 net.cpp:141] Setting up res3b_branch2a_relu
I0709 13:07:09.993957 45093 net.cpp:148] Top shape: 1 128 28 28 (100352)
I0709 13:07:09.993960 45093 net.cpp:156] Memory required for data: 133067036
I0709 13:07:09.993965 45093 layer_factory.hpp:77] Creating layer res3b_branch2b
I0709 13:07:09.993974 45093 net.cpp:91] Creating Layer res3b_branch2b
I0709 13:07:09.993979 45093 net.cpp:435] res3b_branch2b <- res3b_branch2a
I0709 13:07:09.993986 45093 net.cpp:409] res3b_branch2b -> res3b_branch2b
I0709 13:07:09.995102 45093 net.cpp:141] Setting up res3b_branch2b
I0709 13:07:09.995115 45093 net.cpp:148] Top shape: 1 128 28 28 (100352)
I0709 13:07:09.995118 45093 net.cpp:156] Memory required for data: 133468444
I0709 13:07:09.995124 45093 layer_factory.hpp:77] Creating layer bn3b_branch2b
I0709 13:07:09.995132 45093 net.cpp:91] Creating Layer bn3b_branch2b
I0709 13:07:09.995137 45093 net.cpp:435] bn3b_branch2b <- res3b_branch2b
I0709 13:07:09.995143 45093 net.cpp:396] bn3b_branch2b -> res3b_branch2b (in-place)
I0709 13:07:09.995159 45093 net.cpp:141] Setting up bn3b_branch2b
I0709 13:07:09.995164 45093 net.cpp:148] Top shape: 1 128 28 28 (100352)
I0709 13:07:09.995167 45093 net.cpp:156] Memory required for data: 133869852
I0709 13:07:09.995175 45093 layer_factory.hpp:77] Creating layer scale3b_branch2b
I0709 13:07:09.995182 45093 net.cpp:91] Creating Layer scale3b_branch2b
I0709 13:07:09.995185 45093 net.cpp:435] scale3b_branch2b <- res3b_branch2b
I0709 13:07:09.995190 45093 net.cpp:396] scale3b_branch2b -> res3b_branch2b (in-place)
I0709 13:07:09.995200 45093 layer_factory.hpp:77] Creating layer scale3b_branch2b
I0709 13:07:09.995216 45093 net.cpp:141] Setting up scale3b_branch2b
I0709 13:07:09.995221 45093 net.cpp:148] Top shape: 1 128 28 28 (100352)
I0709 13:07:09.995224 45093 net.cpp:156] Memory required for data: 134271260
I0709 13:07:09.995230 45093 layer_factory.hpp:77] Creating layer res3b_branch2b_relu
I0709 13:07:09.995235 45093 net.cpp:91] Creating Layer res3b_branch2b_relu
I0709 13:07:09.995239 45093 net.cpp:435] res3b_branch2b_relu <- res3b_branch2b
I0709 13:07:09.995244 45093 net.cpp:396] res3b_branch2b_relu -> res3b_branch2b (in-place)
I0709 13:07:09.995556 45093 net.cpp:141] Setting up res3b_branch2b_relu
I0709 13:07:09.995568 45093 net.cpp:148] Top shape: 1 128 28 28 (100352)
I0709 13:07:09.995571 45093 net.cpp:156] Memory required for data: 134672668
I0709 13:07:09.995575 45093 layer_factory.hpp:77] Creating layer res3b_branch2c
I0709 13:07:09.995585 45093 net.cpp:91] Creating Layer res3b_branch2c
I0709 13:07:09.995589 45093 net.cpp:435] res3b_branch2c <- res3b_branch2b
I0709 13:07:09.995595 45093 net.cpp:409] res3b_branch2c -> res3b_branch2c
I0709 13:07:09.996563 45093 net.cpp:141] Setting up res3b_branch2c
I0709 13:07:09.996575 45093 net.cpp:148] Top shape: 1 512 28 28 (401408)
I0709 13:07:09.996579 45093 net.cpp:156] Memory required for data: 136278300
I0709 13:07:09.996585 45093 layer_factory.hpp:77] Creating layer bn3b_branch2c
I0709 13:07:09.996594 45093 net.cpp:91] Creating Layer bn3b_branch2c
I0709 13:07:09.996598 45093 net.cpp:435] bn3b_branch2c <- res3b_branch2c
I0709 13:07:09.996603 45093 net.cpp:396] bn3b_branch2c -> res3b_branch2c (in-place)
I0709 13:07:09.996620 45093 net.cpp:141] Setting up bn3b_branch2c
I0709 13:07:09.996625 45093 net.cpp:148] Top shape: 1 512 28 28 (401408)
I0709 13:07:09.996628 45093 net.cpp:156] Memory required for data: 137883932
I0709 13:07:09.996634 45093 layer_factory.hpp:77] Creating layer scale3b_branch2c
I0709 13:07:09.996642 45093 net.cpp:91] Creating Layer scale3b_branch2c
I0709 13:07:09.996645 45093 net.cpp:435] scale3b_branch2c <- res3b_branch2c
I0709 13:07:09.996665 45093 net.cpp:396] scale3b_branch2c -> res3b_branch2c (in-place)
I0709 13:07:09.996676 45093 layer_factory.hpp:77] Creating layer scale3b_branch2c
I0709 13:07:09.996693 45093 net.cpp:141] Setting up scale3b_branch2c
I0709 13:07:09.996697 45093 net.cpp:148] Top shape: 1 512 28 28 (401408)
I0709 13:07:09.996701 45093 net.cpp:156] Memory required for data: 139489564
I0709 13:07:09.996706 45093 layer_factory.hpp:77] Creating layer res3b
I0709 13:07:09.996712 45093 net.cpp:91] Creating Layer res3b
I0709 13:07:09.996716 45093 net.cpp:435] res3b <- res3a_res3a_relu_0_split_1
I0709 13:07:09.996721 45093 net.cpp:435] res3b <- res3b_branch2c
I0709 13:07:09.996724 45093 net.cpp:409] res3b -> res3b
I0709 13:07:09.996731 45093 net.cpp:141] Setting up res3b
I0709 13:07:09.996737 45093 net.cpp:148] Top shape: 1 512 28 28 (401408)
I0709 13:07:09.996739 45093 net.cpp:156] Memory required for data: 141095196
I0709 13:07:09.996742 45093 layer_factory.hpp:77] Creating layer res3b_relu
I0709 13:07:09.996747 45093 net.cpp:91] Creating Layer res3b_relu
I0709 13:07:09.996752 45093 net.cpp:435] res3b_relu <- res3b
I0709 13:07:09.996755 45093 net.cpp:396] res3b_relu -> res3b (in-place)
I0709 13:07:09.996968 45093 net.cpp:141] Setting up res3b_relu
I0709 13:07:09.996976 45093 net.cpp:148] Top shape: 1 512 28 28 (401408)
I0709 13:07:09.996978 45093 net.cpp:156] Memory required for data: 142700828
I0709 13:07:09.996983 45093 layer_factory.hpp:77] Creating layer res3b_res3b_relu_0_split
I0709 13:07:09.996989 45093 net.cpp:91] Creating Layer res3b_res3b_relu_0_split
I0709 13:07:09.996992 45093 net.cpp:435] res3b_res3b_relu_0_split <- res3b
I0709 13:07:09.996997 45093 net.cpp:409] res3b_res3b_relu_0_split -> res3b_res3b_relu_0_split_0
I0709 13:07:09.997004 45093 net.cpp:409] res3b_res3b_relu_0_split -> res3b_res3b_relu_0_split_1
I0709 13:07:09.997010 45093 net.cpp:141] Setting up res3b_res3b_relu_0_split
I0709 13:07:09.997015 45093 net.cpp:148] Top shape: 1 512 28 28 (401408)
I0709 13:07:09.997019 45093 net.cpp:148] Top shape: 1 512 28 28 (401408)
I0709 13:07:09.997020 45093 net.cpp:156] Memory required for data: 145912092
I0709 13:07:09.997023 45093 layer_factory.hpp:77] Creating layer res3c_branch2a
I0709 13:07:09.997032 45093 net.cpp:91] Creating Layer res3c_branch2a
I0709 13:07:09.997036 45093 net.cpp:435] res3c_branch2a <- res3b_res3b_relu_0_split_0
I0709 13:07:09.997041 45093 net.cpp:409] res3c_branch2a -> res3c_branch2a
I0709 13:07:09.998046 45093 net.cpp:141] Setting up res3c_branch2a
I0709 13:07:09.998059 45093 net.cpp:148] Top shape: 1 128 28 28 (100352)
I0709 13:07:09.998061 45093 net.cpp:156] Memory required for data: 146313500
I0709 13:07:09.998069 45093 layer_factory.hpp:77] Creating layer bn3c_branch2a
I0709 13:07:09.998076 45093 net.cpp:91] Creating Layer bn3c_branch2a
I0709 13:07:09.998080 45093 net.cpp:435] bn3c_branch2a <- res3c_branch2a
I0709 13:07:09.998086 45093 net.cpp:396] bn3c_branch2a -> res3c_branch2a (in-place)
I0709 13:07:09.998102 45093 net.cpp:141] Setting up bn3c_branch2a
I0709 13:07:09.998107 45093 net.cpp:148] Top shape: 1 128 28 28 (100352)
I0709 13:07:09.998111 45093 net.cpp:156] Memory required for data: 146714908
I0709 13:07:09.998118 45093 layer_factory.hpp:77] Creating layer scale3c_branch2a
I0709 13:07:09.998126 45093 net.cpp:91] Creating Layer scale3c_branch2a
I0709 13:07:09.998128 45093 net.cpp:435] scale3c_branch2a <- res3c_branch2a
I0709 13:07:09.998133 45093 net.cpp:396] scale3c_branch2a -> res3c_branch2a (in-place)
I0709 13:07:09.998143 45093 layer_factory.hpp:77] Creating layer scale3c_branch2a
I0709 13:07:09.998159 45093 net.cpp:141] Setting up scale3c_branch2a
I0709 13:07:09.998164 45093 net.cpp:148] Top shape: 1 128 28 28 (100352)
I0709 13:07:09.998167 45093 net.cpp:156] Memory required for data: 147116316
I0709 13:07:09.998173 45093 layer_factory.hpp:77] Creating layer res3c_branch2a_relu
I0709 13:07:09.998179 45093 net.cpp:91] Creating Layer res3c_branch2a_relu
I0709 13:07:09.998183 45093 net.cpp:435] res3c_branch2a_relu <- res3c_branch2a
I0709 13:07:09.998188 45093 net.cpp:396] res3c_branch2a_relu -> res3c_branch2a (in-place)
I0709 13:07:09.998522 45093 net.cpp:141] Setting up res3c_branch2a_relu
I0709 13:07:09.998533 45093 net.cpp:148] Top shape: 1 128 28 28 (100352)
I0709 13:07:09.998535 45093 net.cpp:156] Memory required for data: 147517724
I0709 13:07:09.998539 45093 layer_factory.hpp:77] Creating layer res3c_branch2b
I0709 13:07:09.998548 45093 net.cpp:91] Creating Layer res3c_branch2b
I0709 13:07:09.998553 45093 net.cpp:435] res3c_branch2b <- res3c_branch2a
I0709 13:07:09.998558 45093 net.cpp:409] res3c_branch2b -> res3c_branch2b
I0709 13:07:09.999590 45093 net.cpp:141] Setting up res3c_branch2b
I0709 13:07:09.999601 45093 net.cpp:148] Top shape: 1 128 28 28 (100352)
I0709 13:07:09.999605 45093 net.cpp:156] Memory required for data: 147919132
I0709 13:07:09.999610 45093 layer_factory.hpp:77] Creating layer bn3c_branch2b
I0709 13:07:09.999619 45093 net.cpp:91] Creating Layer bn3c_branch2b
I0709 13:07:09.999624 45093 net.cpp:435] bn3c_branch2b <- res3c_branch2b
I0709 13:07:09.999629 45093 net.cpp:396] bn3c_branch2b -> res3c_branch2b (in-place)
I0709 13:07:09.999644 45093 net.cpp:141] Setting up bn3c_branch2b
I0709 13:07:09.999650 45093 net.cpp:148] Top shape: 1 128 28 28 (100352)
I0709 13:07:09.999652 45093 net.cpp:156] Memory required for data: 148320540
I0709 13:07:09.999660 45093 layer_factory.hpp:77] Creating layer scale3c_branch2b
I0709 13:07:09.999666 45093 net.cpp:91] Creating Layer scale3c_branch2b
I0709 13:07:09.999670 45093 net.cpp:435] scale3c_branch2b <- res3c_branch2b
I0709 13:07:09.999675 45093 net.cpp:396] scale3c_branch2b -> res3c_branch2b (in-place)
I0709 13:07:09.999685 45093 layer_factory.hpp:77] Creating layer scale3c_branch2b
I0709 13:07:09.999701 45093 net.cpp:141] Setting up scale3c_branch2b
I0709 13:07:09.999706 45093 net.cpp:148] Top shape: 1 128 28 28 (100352)
I0709 13:07:09.999708 45093 net.cpp:156] Memory required for data: 148721948
I0709 13:07:09.999713 45093 layer_factory.hpp:77] Creating layer res3c_branch2b_relu
I0709 13:07:09.999719 45093 net.cpp:91] Creating Layer res3c_branch2b_relu
I0709 13:07:09.999722 45093 net.cpp:435] res3c_branch2b_relu <- res3c_branch2b
I0709 13:07:09.999727 45093 net.cpp:396] res3c_branch2b_relu -> res3c_branch2b (in-place)
I0709 13:07:10.000046 45093 net.cpp:141] Setting up res3c_branch2b_relu
I0709 13:07:10.000057 45093 net.cpp:148] Top shape: 1 128 28 28 (100352)
I0709 13:07:10.000061 45093 net.cpp:156] Memory required for data: 149123356
I0709 13:07:10.000063 45093 layer_factory.hpp:77] Creating layer res3c_branch2c
I0709 13:07:10.000073 45093 net.cpp:91] Creating Layer res3c_branch2c
I0709 13:07:10.000077 45093 net.cpp:435] res3c_branch2c <- res3c_branch2b
I0709 13:07:10.000083 45093 net.cpp:409] res3c_branch2c -> res3c_branch2c
I0709 13:07:10.001020 45093 net.cpp:141] Setting up res3c_branch2c
I0709 13:07:10.001031 45093 net.cpp:148] Top shape: 1 512 28 28 (401408)
I0709 13:07:10.001035 45093 net.cpp:156] Memory required for data: 150728988
I0709 13:07:10.001040 45093 layer_factory.hpp:77] Creating layer bn3c_branch2c
I0709 13:07:10.001049 45093 net.cpp:91] Creating Layer bn3c_branch2c
I0709 13:07:10.001052 45093 net.cpp:435] bn3c_branch2c <- res3c_branch2c
I0709 13:07:10.001058 45093 net.cpp:396] bn3c_branch2c -> res3c_branch2c (in-place)
I0709 13:07:10.001075 45093 net.cpp:141] Setting up bn3c_branch2c
I0709 13:07:10.001080 45093 net.cpp:148] Top shape: 1 512 28 28 (401408)
I0709 13:07:10.001081 45093 net.cpp:156] Memory required for data: 152334620
I0709 13:07:10.001087 45093 layer_factory.hpp:77] Creating layer scale3c_branch2c
I0709 13:07:10.001094 45093 net.cpp:91] Creating Layer scale3c_branch2c
I0709 13:07:10.001097 45093 net.cpp:435] scale3c_branch2c <- res3c_branch2c
I0709 13:07:10.001102 45093 net.cpp:396] scale3c_branch2c -> res3c_branch2c (in-place)
I0709 13:07:10.001112 45093 layer_factory.hpp:77] Creating layer scale3c_branch2c
I0709 13:07:10.001128 45093 net.cpp:141] Setting up scale3c_branch2c
I0709 13:07:10.001132 45093 net.cpp:148] Top shape: 1 512 28 28 (401408)
I0709 13:07:10.001135 45093 net.cpp:156] Memory required for data: 153940252
I0709 13:07:10.001152 45093 layer_factory.hpp:77] Creating layer res3c
I0709 13:07:10.001159 45093 net.cpp:91] Creating Layer res3c
I0709 13:07:10.001163 45093 net.cpp:435] res3c <- res3b_res3b_relu_0_split_1
I0709 13:07:10.001168 45093 net.cpp:435] res3c <- res3c_branch2c
I0709 13:07:10.001173 45093 net.cpp:409] res3c -> res3c
I0709 13:07:10.001179 45093 net.cpp:141] Setting up res3c
I0709 13:07:10.001183 45093 net.cpp:148] Top shape: 1 512 28 28 (401408)
I0709 13:07:10.001186 45093 net.cpp:156] Memory required for data: 155545884
I0709 13:07:10.001189 45093 layer_factory.hpp:77] Creating layer res3c_relu
I0709 13:07:10.001195 45093 net.cpp:91] Creating Layer res3c_relu
I0709 13:07:10.001199 45093 net.cpp:435] res3c_relu <- res3c
I0709 13:07:10.001202 45093 net.cpp:396] res3c_relu -> res3c (in-place)
I0709 13:07:10.001375 45093 net.cpp:141] Setting up res3c_relu
I0709 13:07:10.001384 45093 net.cpp:148] Top shape: 1 512 28 28 (401408)
I0709 13:07:10.001386 45093 net.cpp:156] Memory required for data: 157151516
I0709 13:07:10.001390 45093 layer_factory.hpp:77] Creating layer res3c_res3c_relu_0_split
I0709 13:07:10.001395 45093 net.cpp:91] Creating Layer res3c_res3c_relu_0_split
I0709 13:07:10.001399 45093 net.cpp:435] res3c_res3c_relu_0_split <- res3c
I0709 13:07:10.001405 45093 net.cpp:409] res3c_res3c_relu_0_split -> res3c_res3c_relu_0_split_0
I0709 13:07:10.001411 45093 net.cpp:409] res3c_res3c_relu_0_split -> res3c_res3c_relu_0_split_1
I0709 13:07:10.001418 45093 net.cpp:141] Setting up res3c_res3c_relu_0_split
I0709 13:07:10.001422 45093 net.cpp:148] Top shape: 1 512 28 28 (401408)
I0709 13:07:10.001425 45093 net.cpp:148] Top shape: 1 512 28 28 (401408)
I0709 13:07:10.001427 45093 net.cpp:156] Memory required for data: 160362780
I0709 13:07:10.001430 45093 layer_factory.hpp:77] Creating layer res3d_branch2a
I0709 13:07:10.001440 45093 net.cpp:91] Creating Layer res3d_branch2a
I0709 13:07:10.001442 45093 net.cpp:435] res3d_branch2a <- res3c_res3c_relu_0_split_0
I0709 13:07:10.001447 45093 net.cpp:409] res3d_branch2a -> res3d_branch2a
I0709 13:07:10.002362 45093 net.cpp:141] Setting up res3d_branch2a
I0709 13:07:10.002374 45093 net.cpp:148] Top shape: 1 128 28 28 (100352)
I0709 13:07:10.002377 45093 net.cpp:156] Memory required for data: 160764188
I0709 13:07:10.002383 45093 layer_factory.hpp:77] Creating layer bn3d_branch2a
I0709 13:07:10.002391 45093 net.cpp:91] Creating Layer bn3d_branch2a
I0709 13:07:10.002396 45093 net.cpp:435] bn3d_branch2a <- res3d_branch2a
I0709 13:07:10.002401 45093 net.cpp:396] bn3d_branch2a -> res3d_branch2a (in-place)
I0709 13:07:10.002418 45093 net.cpp:141] Setting up bn3d_branch2a
I0709 13:07:10.002423 45093 net.cpp:148] Top shape: 1 128 28 28 (100352)
I0709 13:07:10.002425 45093 net.cpp:156] Memory required for data: 161165596
I0709 13:07:10.002439 45093 layer_factory.hpp:77] Creating layer scale3d_branch2a
I0709 13:07:10.002445 45093 net.cpp:91] Creating Layer scale3d_branch2a
I0709 13:07:10.002449 45093 net.cpp:435] scale3d_branch2a <- res3d_branch2a
I0709 13:07:10.002454 45093 net.cpp:396] scale3d_branch2a -> res3d_branch2a (in-place)
I0709 13:07:10.002465 45093 layer_factory.hpp:77] Creating layer scale3d_branch2a
I0709 13:07:10.002480 45093 net.cpp:141] Setting up scale3d_branch2a
I0709 13:07:10.002483 45093 net.cpp:148] Top shape: 1 128 28 28 (100352)
I0709 13:07:10.002487 45093 net.cpp:156] Memory required for data: 161567004
I0709 13:07:10.002492 45093 layer_factory.hpp:77] Creating layer res3d_branch2a_relu
I0709 13:07:10.002498 45093 net.cpp:91] Creating Layer res3d_branch2a_relu
I0709 13:07:10.002502 45093 net.cpp:435] res3d_branch2a_relu <- res3d_branch2a
I0709 13:07:10.002506 45093 net.cpp:396] res3d_branch2a_relu -> res3d_branch2a (in-place)
I0709 13:07:10.002873 45093 net.cpp:141] Setting up res3d_branch2a_relu
I0709 13:07:10.002885 45093 net.cpp:148] Top shape: 1 128 28 28 (100352)
I0709 13:07:10.002888 45093 net.cpp:156] Memory required for data: 161968412
I0709 13:07:10.002892 45093 layer_factory.hpp:77] Creating layer res3d_branch2b
I0709 13:07:10.002913 45093 net.cpp:91] Creating Layer res3d_branch2b
I0709 13:07:10.002919 45093 net.cpp:435] res3d_branch2b <- res3d_branch2a
I0709 13:07:10.002925 45093 net.cpp:409] res3d_branch2b -> res3d_branch2b
I0709 13:07:10.003983 45093 net.cpp:141] Setting up res3d_branch2b
I0709 13:07:10.003994 45093 net.cpp:148] Top shape: 1 128 28 28 (100352)
I0709 13:07:10.003998 45093 net.cpp:156] Memory required for data: 162369820
I0709 13:07:10.004004 45093 layer_factory.hpp:77] Creating layer bn3d_branch2b
I0709 13:07:10.004012 45093 net.cpp:91] Creating Layer bn3d_branch2b
I0709 13:07:10.004017 45093 net.cpp:435] bn3d_branch2b <- res3d_branch2b
I0709 13:07:10.004024 45093 net.cpp:396] bn3d_branch2b -> res3d_branch2b (in-place)
I0709 13:07:10.004040 45093 net.cpp:141] Setting up bn3d_branch2b
I0709 13:07:10.004045 45093 net.cpp:148] Top shape: 1 128 28 28 (100352)
I0709 13:07:10.004047 45093 net.cpp:156] Memory required for data: 162771228
I0709 13:07:10.004055 45093 layer_factory.hpp:77] Creating layer scale3d_branch2b
I0709 13:07:10.004062 45093 net.cpp:91] Creating Layer scale3d_branch2b
I0709 13:07:10.004066 45093 net.cpp:435] scale3d_branch2b <- res3d_branch2b
I0709 13:07:10.004071 45093 net.cpp:396] scale3d_branch2b -> res3d_branch2b (in-place)
I0709 13:07:10.004081 45093 layer_factory.hpp:77] Creating layer scale3d_branch2b
I0709 13:07:10.004097 45093 net.cpp:141] Setting up scale3d_branch2b
I0709 13:07:10.004102 45093 net.cpp:148] Top shape: 1 128 28 28 (100352)
I0709 13:07:10.004106 45093 net.cpp:156] Memory required for data: 163172636
I0709 13:07:10.004112 45093 layer_factory.hpp:77] Creating layer res3d_branch2b_relu
I0709 13:07:10.004117 45093 net.cpp:91] Creating Layer res3d_branch2b_relu
I0709 13:07:10.004122 45093 net.cpp:435] res3d_branch2b_relu <- res3d_branch2b
I0709 13:07:10.004127 45093 net.cpp:396] res3d_branch2b_relu -> res3d_branch2b (in-place)
I0709 13:07:10.004465 45093 net.cpp:141] Setting up res3d_branch2b_relu
I0709 13:07:10.004477 45093 net.cpp:148] Top shape: 1 128 28 28 (100352)
I0709 13:07:10.004480 45093 net.cpp:156] Memory required for data: 163574044
I0709 13:07:10.004485 45093 layer_factory.hpp:77] Creating layer res3d_branch2c
I0709 13:07:10.004495 45093 net.cpp:91] Creating Layer res3d_branch2c
I0709 13:07:10.004499 45093 net.cpp:435] res3d_branch2c <- res3d_branch2b
I0709 13:07:10.004506 45093 net.cpp:409] res3d_branch2c -> res3d_branch2c
I0709 13:07:10.005528 45093 net.cpp:141] Setting up res3d_branch2c
I0709 13:07:10.005540 45093 net.cpp:148] Top shape: 1 512 28 28 (401408)
I0709 13:07:10.005544 45093 net.cpp:156] Memory required for data: 165179676
I0709 13:07:10.005551 45093 layer_factory.hpp:77] Creating layer bn3d_branch2c
I0709 13:07:10.005559 45093 net.cpp:91] Creating Layer bn3d_branch2c
I0709 13:07:10.005564 45093 net.cpp:435] bn3d_branch2c <- res3d_branch2c
I0709 13:07:10.005570 45093 net.cpp:396] bn3d_branch2c -> res3d_branch2c (in-place)
I0709 13:07:10.005587 45093 net.cpp:141] Setting up bn3d_branch2c
I0709 13:07:10.005594 45093 net.cpp:148] Top shape: 1 512 28 28 (401408)
I0709 13:07:10.005597 45093 net.cpp:156] Memory required for data: 166785308
I0709 13:07:10.005604 45093 layer_factory.hpp:77] Creating layer scale3d_branch2c
I0709 13:07:10.005611 45093 net.cpp:91] Creating Layer scale3d_branch2c
I0709 13:07:10.005615 45093 net.cpp:435] scale3d_branch2c <- res3d_branch2c
I0709 13:07:10.005620 45093 net.cpp:396] scale3d_branch2c -> res3d_branch2c (in-place)
I0709 13:07:10.005630 45093 layer_factory.hpp:77] Creating layer scale3d_branch2c
I0709 13:07:10.005647 45093 net.cpp:141] Setting up scale3d_branch2c
I0709 13:07:10.005652 45093 net.cpp:148] Top shape: 1 512 28 28 (401408)
I0709 13:07:10.005656 45093 net.cpp:156] Memory required for data: 168390940
I0709 13:07:10.005661 45093 layer_factory.hpp:77] Creating layer res3d
I0709 13:07:10.005667 45093 net.cpp:91] Creating Layer res3d
I0709 13:07:10.005671 45093 net.cpp:435] res3d <- res3c_res3c_relu_0_split_1
I0709 13:07:10.005676 45093 net.cpp:435] res3d <- res3d_branch2c
I0709 13:07:10.005681 45093 net.cpp:409] res3d -> res3d
I0709 13:07:10.005700 45093 net.cpp:141] Setting up res3d
I0709 13:07:10.005707 45093 net.cpp:148] Top shape: 1 512 28 28 (401408)
I0709 13:07:10.005710 45093 net.cpp:156] Memory required for data: 169996572
I0709 13:07:10.005713 45093 layer_factory.hpp:77] Creating layer res3d_relu
I0709 13:07:10.005719 45093 net.cpp:91] Creating Layer res3d_relu
I0709 13:07:10.005722 45093 net.cpp:435] res3d_relu <- res3d
I0709 13:07:10.005728 45093 net.cpp:396] res3d_relu -> res3d (in-place)
I0709 13:07:10.005946 45093 net.cpp:141] Setting up res3d_relu
I0709 13:07:10.005955 45093 net.cpp:148] Top shape: 1 512 28 28 (401408)
I0709 13:07:10.005959 45093 net.cpp:156] Memory required for data: 171602204
I0709 13:07:10.005962 45093 layer_factory.hpp:77] Creating layer res3d_res3d_relu_0_split
I0709 13:07:10.005969 45093 net.cpp:91] Creating Layer res3d_res3d_relu_0_split
I0709 13:07:10.005972 45093 net.cpp:435] res3d_res3d_relu_0_split <- res3d
I0709 13:07:10.005978 45093 net.cpp:409] res3d_res3d_relu_0_split -> res3d_res3d_relu_0_split_0
I0709 13:07:10.005985 45093 net.cpp:409] res3d_res3d_relu_0_split -> res3d_res3d_relu_0_split_1
I0709 13:07:10.005992 45093 net.cpp:141] Setting up res3d_res3d_relu_0_split
I0709 13:07:10.005997 45093 net.cpp:148] Top shape: 1 512 28 28 (401408)
I0709 13:07:10.006001 45093 net.cpp:148] Top shape: 1 512 28 28 (401408)
I0709 13:07:10.006003 45093 net.cpp:156] Memory required for data: 174813468
I0709 13:07:10.006006 45093 layer_factory.hpp:77] Creating layer res4a_branch1
I0709 13:07:10.006016 45093 net.cpp:91] Creating Layer res4a_branch1
I0709 13:07:10.006019 45093 net.cpp:435] res4a_branch1 <- res3d_res3d_relu_0_split_0
I0709 13:07:10.006026 45093 net.cpp:409] res4a_branch1 -> res4a_branch1
I0709 13:07:10.007992 45093 net.cpp:141] Setting up res4a_branch1
I0709 13:07:10.008003 45093 net.cpp:148] Top shape: 1 1024 14 14 (200704)
I0709 13:07:10.008008 45093 net.cpp:156] Memory required for data: 175616284
I0709 13:07:10.008014 45093 layer_factory.hpp:77] Creating layer bn4a_branch1
I0709 13:07:10.008023 45093 net.cpp:91] Creating Layer bn4a_branch1
I0709 13:07:10.008028 45093 net.cpp:435] bn4a_branch1 <- res4a_branch1
I0709 13:07:10.008033 45093 net.cpp:396] bn4a_branch1 -> res4a_branch1 (in-place)
I0709 13:07:10.008050 45093 net.cpp:141] Setting up bn4a_branch1
I0709 13:07:10.008055 45093 net.cpp:148] Top shape: 1 1024 14 14 (200704)
I0709 13:07:10.008059 45093 net.cpp:156] Memory required for data: 176419100
I0709 13:07:10.008065 45093 layer_factory.hpp:77] Creating layer scale4a_branch1
I0709 13:07:10.008074 45093 net.cpp:91] Creating Layer scale4a_branch1
I0709 13:07:10.008076 45093 net.cpp:435] scale4a_branch1 <- res4a_branch1
I0709 13:07:10.008081 45093 net.cpp:396] scale4a_branch1 -> res4a_branch1 (in-place)
I0709 13:07:10.008093 45093 layer_factory.hpp:77] Creating layer scale4a_branch1
I0709 13:07:10.008108 45093 net.cpp:141] Setting up scale4a_branch1
I0709 13:07:10.008113 45093 net.cpp:148] Top shape: 1 1024 14 14 (200704)
I0709 13:07:10.008116 45093 net.cpp:156] Memory required for data: 177221916
I0709 13:07:10.008121 45093 layer_factory.hpp:77] Creating layer res4a_branch2a
I0709 13:07:10.008131 45093 net.cpp:91] Creating Layer res4a_branch2a
I0709 13:07:10.008136 45093 net.cpp:435] res4a_branch2a <- res3d_res3d_relu_0_split_1
I0709 13:07:10.008141 45093 net.cpp:409] res4a_branch2a -> res4a_branch2a
I0709 13:07:10.009299 45093 net.cpp:141] Setting up res4a_branch2a
I0709 13:07:10.009310 45093 net.cpp:148] Top shape: 1 256 14 14 (50176)
I0709 13:07:10.009315 45093 net.cpp:156] Memory required for data: 177422620
I0709 13:07:10.009321 45093 layer_factory.hpp:77] Creating layer bn4a_branch2a
I0709 13:07:10.009330 45093 net.cpp:91] Creating Layer bn4a_branch2a
I0709 13:07:10.009335 45093 net.cpp:435] bn4a_branch2a <- res4a_branch2a
I0709 13:07:10.009341 45093 net.cpp:396] bn4a_branch2a -> res4a_branch2a (in-place)
I0709 13:07:10.009356 45093 net.cpp:141] Setting up bn4a_branch2a
I0709 13:07:10.009361 45093 net.cpp:148] Top shape: 1 256 14 14 (50176)
I0709 13:07:10.009377 45093 net.cpp:156] Memory required for data: 177623324
I0709 13:07:10.009384 45093 layer_factory.hpp:77] Creating layer scale4a_branch2a
I0709 13:07:10.009392 45093 net.cpp:91] Creating Layer scale4a_branch2a
I0709 13:07:10.009397 45093 net.cpp:435] scale4a_branch2a <- res4a_branch2a
I0709 13:07:10.009402 45093 net.cpp:396] scale4a_branch2a -> res4a_branch2a (in-place)
I0709 13:07:10.009413 45093 layer_factory.hpp:77] Creating layer scale4a_branch2a
I0709 13:07:10.009428 45093 net.cpp:141] Setting up scale4a_branch2a
I0709 13:07:10.009433 45093 net.cpp:148] Top shape: 1 256 14 14 (50176)
I0709 13:07:10.009435 45093 net.cpp:156] Memory required for data: 177824028
I0709 13:07:10.009441 45093 layer_factory.hpp:77] Creating layer res4a_branch2a_relu
I0709 13:07:10.009448 45093 net.cpp:91] Creating Layer res4a_branch2a_relu
I0709 13:07:10.009451 45093 net.cpp:435] res4a_branch2a_relu <- res4a_branch2a
I0709 13:07:10.009455 45093 net.cpp:396] res4a_branch2a_relu -> res4a_branch2a (in-place)
I0709 13:07:10.009672 45093 net.cpp:141] Setting up res4a_branch2a_relu
I0709 13:07:10.009681 45093 net.cpp:148] Top shape: 1 256 14 14 (50176)
I0709 13:07:10.009685 45093 net.cpp:156] Memory required for data: 178024732
I0709 13:07:10.009688 45093 layer_factory.hpp:77] Creating layer res4a_branch2b
I0709 13:07:10.009696 45093 net.cpp:91] Creating Layer res4a_branch2b
I0709 13:07:10.009701 45093 net.cpp:435] res4a_branch2b <- res4a_branch2a
I0709 13:07:10.009707 45093 net.cpp:409] res4a_branch2b -> res4a_branch2b
I0709 13:07:10.011801 45093 net.cpp:141] Setting up res4a_branch2b
I0709 13:07:10.011813 45093 net.cpp:148] Top shape: 1 256 14 14 (50176)
I0709 13:07:10.011816 45093 net.cpp:156] Memory required for data: 178225436
I0709 13:07:10.011822 45093 layer_factory.hpp:77] Creating layer bn4a_branch2b
I0709 13:07:10.011831 45093 net.cpp:91] Creating Layer bn4a_branch2b
I0709 13:07:10.011837 45093 net.cpp:435] bn4a_branch2b <- res4a_branch2b
I0709 13:07:10.011842 45093 net.cpp:396] bn4a_branch2b -> res4a_branch2b (in-place)
I0709 13:07:10.011858 45093 net.cpp:141] Setting up bn4a_branch2b
I0709 13:07:10.011862 45093 net.cpp:148] Top shape: 1 256 14 14 (50176)
I0709 13:07:10.011865 45093 net.cpp:156] Memory required for data: 178426140
I0709 13:07:10.011883 45093 layer_factory.hpp:77] Creating layer scale4a_branch2b
I0709 13:07:10.011890 45093 net.cpp:91] Creating Layer scale4a_branch2b
I0709 13:07:10.011893 45093 net.cpp:435] scale4a_branch2b <- res4a_branch2b
I0709 13:07:10.011898 45093 net.cpp:396] scale4a_branch2b -> res4a_branch2b (in-place)
I0709 13:07:10.011909 45093 layer_factory.hpp:77] Creating layer scale4a_branch2b
I0709 13:07:10.011922 45093 net.cpp:141] Setting up scale4a_branch2b
I0709 13:07:10.011926 45093 net.cpp:148] Top shape: 1 256 14 14 (50176)
I0709 13:07:10.011929 45093 net.cpp:156] Memory required for data: 178626844
I0709 13:07:10.011934 45093 layer_factory.hpp:77] Creating layer res4a_branch2b_relu
I0709 13:07:10.011940 45093 net.cpp:91] Creating Layer res4a_branch2b_relu
I0709 13:07:10.011943 45093 net.cpp:435] res4a_branch2b_relu <- res4a_branch2b
I0709 13:07:10.011947 45093 net.cpp:396] res4a_branch2b_relu -> res4a_branch2b (in-place)
I0709 13:07:10.012279 45093 net.cpp:141] Setting up res4a_branch2b_relu
I0709 13:07:10.012290 45093 net.cpp:148] Top shape: 1 256 14 14 (50176)
I0709 13:07:10.012293 45093 net.cpp:156] Memory required for data: 178827548
I0709 13:07:10.012297 45093 layer_factory.hpp:77] Creating layer res4a_branch2c
I0709 13:07:10.012307 45093 net.cpp:91] Creating Layer res4a_branch2c
I0709 13:07:10.012312 45093 net.cpp:435] res4a_branch2c <- res4a_branch2b
I0709 13:07:10.012318 45093 net.cpp:409] res4a_branch2c -> res4a_branch2c
I0709 13:07:10.013718 45093 net.cpp:141] Setting up res4a_branch2c
I0709 13:07:10.013731 45093 net.cpp:148] Top shape: 1 1024 14 14 (200704)
I0709 13:07:10.013734 45093 net.cpp:156] Memory required for data: 179630364
I0709 13:07:10.013741 45093 layer_factory.hpp:77] Creating layer bn4a_branch2c
I0709 13:07:10.013748 45093 net.cpp:91] Creating Layer bn4a_branch2c
I0709 13:07:10.013767 45093 net.cpp:435] bn4a_branch2c <- res4a_branch2c
I0709 13:07:10.013773 45093 net.cpp:396] bn4a_branch2c -> res4a_branch2c (in-place)
I0709 13:07:10.013792 45093 net.cpp:141] Setting up bn4a_branch2c
I0709 13:07:10.013798 45093 net.cpp:148] Top shape: 1 1024 14 14 (200704)
I0709 13:07:10.013802 45093 net.cpp:156] Memory required for data: 180433180
I0709 13:07:10.013808 45093 layer_factory.hpp:77] Creating layer scale4a_branch2c
I0709 13:07:10.013818 45093 net.cpp:91] Creating Layer scale4a_branch2c
I0709 13:07:10.013823 45093 net.cpp:435] scale4a_branch2c <- res4a_branch2c
I0709 13:07:10.013828 45093 net.cpp:396] scale4a_branch2c -> res4a_branch2c (in-place)
I0709 13:07:10.013840 45093 layer_factory.hpp:77] Creating layer scale4a_branch2c
I0709 13:07:10.013856 45093 net.cpp:141] Setting up scale4a_branch2c
I0709 13:07:10.013861 45093 net.cpp:148] Top shape: 1 1024 14 14 (200704)
I0709 13:07:10.013864 45093 net.cpp:156] Memory required for data: 181235996
I0709 13:07:10.013870 45093 layer_factory.hpp:77] Creating layer res4a
I0709 13:07:10.013877 45093 net.cpp:91] Creating Layer res4a
I0709 13:07:10.013881 45093 net.cpp:435] res4a <- res4a_branch1
I0709 13:07:10.013885 45093 net.cpp:435] res4a <- res4a_branch2c
I0709 13:07:10.013890 45093 net.cpp:409] res4a -> res4a
I0709 13:07:10.013898 45093 net.cpp:141] Setting up res4a
I0709 13:07:10.013902 45093 net.cpp:148] Top shape: 1 1024 14 14 (200704)
I0709 13:07:10.013906 45093 net.cpp:156] Memory required for data: 182038812
I0709 13:07:10.013909 45093 layer_factory.hpp:77] Creating layer res4a_relu
I0709 13:07:10.013916 45093 net.cpp:91] Creating Layer res4a_relu
I0709 13:07:10.013919 45093 net.cpp:435] res4a_relu <- res4a
I0709 13:07:10.013923 45093 net.cpp:396] res4a_relu -> res4a (in-place)
I0709 13:07:10.014145 45093 net.cpp:141] Setting up res4a_relu
I0709 13:07:10.014154 45093 net.cpp:148] Top shape: 1 1024 14 14 (200704)
I0709 13:07:10.014158 45093 net.cpp:156] Memory required for data: 182841628
I0709 13:07:10.014161 45093 layer_factory.hpp:77] Creating layer res4a_res4a_relu_0_split
I0709 13:07:10.014168 45093 net.cpp:91] Creating Layer res4a_res4a_relu_0_split
I0709 13:07:10.014173 45093 net.cpp:435] res4a_res4a_relu_0_split <- res4a
I0709 13:07:10.014178 45093 net.cpp:409] res4a_res4a_relu_0_split -> res4a_res4a_relu_0_split_0
I0709 13:07:10.014184 45093 net.cpp:409] res4a_res4a_relu_0_split -> res4a_res4a_relu_0_split_1
I0709 13:07:10.014191 45093 net.cpp:141] Setting up res4a_res4a_relu_0_split
I0709 13:07:10.014196 45093 net.cpp:148] Top shape: 1 1024 14 14 (200704)
I0709 13:07:10.014199 45093 net.cpp:148] Top shape: 1 1024 14 14 (200704)
I0709 13:07:10.014202 45093 net.cpp:156] Memory required for data: 184447260
I0709 13:07:10.014205 45093 layer_factory.hpp:77] Creating layer res4b_branch2a
I0709 13:07:10.014214 45093 net.cpp:91] Creating Layer res4b_branch2a
I0709 13:07:10.014219 45093 net.cpp:435] res4b_branch2a <- res4a_res4a_relu_0_split_0
I0709 13:07:10.014225 45093 net.cpp:409] res4b_branch2a -> res4b_branch2a
I0709 13:07:10.015621 45093 net.cpp:141] Setting up res4b_branch2a
I0709 13:07:10.015633 45093 net.cpp:148] Top shape: 1 256 14 14 (50176)
I0709 13:07:10.015637 45093 net.cpp:156] Memory required for data: 184647964
I0709 13:07:10.015643 45093 layer_factory.hpp:77] Creating layer bn4b_branch2a
I0709 13:07:10.015652 45093 net.cpp:91] Creating Layer bn4b_branch2a
I0709 13:07:10.015656 45093 net.cpp:435] bn4b_branch2a <- res4b_branch2a
I0709 13:07:10.015662 45093 net.cpp:396] bn4b_branch2a -> res4b_branch2a (in-place)
I0709 13:07:10.015681 45093 net.cpp:141] Setting up bn4b_branch2a
I0709 13:07:10.015686 45093 net.cpp:148] Top shape: 1 256 14 14 (50176)
I0709 13:07:10.015688 45093 net.cpp:156] Memory required for data: 184848668
I0709 13:07:10.015696 45093 layer_factory.hpp:77] Creating layer scale4b_branch2a
I0709 13:07:10.015702 45093 net.cpp:91] Creating Layer scale4b_branch2a
I0709 13:07:10.015707 45093 net.cpp:435] scale4b_branch2a <- res4b_branch2a
I0709 13:07:10.015712 45093 net.cpp:396] scale4b_branch2a -> res4b_branch2a (in-place)
I0709 13:07:10.015734 45093 layer_factory.hpp:77] Creating layer scale4b_branch2a
I0709 13:07:10.015751 45093 net.cpp:141] Setting up scale4b_branch2a
I0709 13:07:10.015756 45093 net.cpp:148] Top shape: 1 256 14 14 (50176)
I0709 13:07:10.015759 45093 net.cpp:156] Memory required for data: 185049372
I0709 13:07:10.015765 45093 layer_factory.hpp:77] Creating layer res4b_branch2a_relu
I0709 13:07:10.015771 45093 net.cpp:91] Creating Layer res4b_branch2a_relu
I0709 13:07:10.015774 45093 net.cpp:435] res4b_branch2a_relu <- res4b_branch2a
I0709 13:07:10.015779 45093 net.cpp:396] res4b_branch2a_relu -> res4b_branch2a (in-place)
I0709 13:07:10.015998 45093 net.cpp:141] Setting up res4b_branch2a_relu
I0709 13:07:10.016007 45093 net.cpp:148] Top shape: 1 256 14 14 (50176)
I0709 13:07:10.016011 45093 net.cpp:156] Memory required for data: 185250076
I0709 13:07:10.016014 45093 layer_factory.hpp:77] Creating layer res4b_branch2b
I0709 13:07:10.016024 45093 net.cpp:91] Creating Layer res4b_branch2b
I0709 13:07:10.016028 45093 net.cpp:435] res4b_branch2b <- res4b_branch2a
I0709 13:07:10.016034 45093 net.cpp:409] res4b_branch2b -> res4b_branch2b
I0709 13:07:10.018188 45093 net.cpp:141] Setting up res4b_branch2b
I0709 13:07:10.018200 45093 net.cpp:148] Top shape: 1 256 14 14 (50176)
I0709 13:07:10.018204 45093 net.cpp:156] Memory required for data: 185450780
I0709 13:07:10.018210 45093 layer_factory.hpp:77] Creating layer bn4b_branch2b
I0709 13:07:10.018219 45093 net.cpp:91] Creating Layer bn4b_branch2b
I0709 13:07:10.018224 45093 net.cpp:435] bn4b_branch2b <- res4b_branch2b
I0709 13:07:10.018230 45093 net.cpp:396] bn4b_branch2b -> res4b_branch2b (in-place)
I0709 13:07:10.018247 45093 net.cpp:141] Setting up bn4b_branch2b
I0709 13:07:10.018252 45093 net.cpp:148] Top shape: 1 256 14 14 (50176)
I0709 13:07:10.018255 45093 net.cpp:156] Memory required for data: 185651484
I0709 13:07:10.018262 45093 layer_factory.hpp:77] Creating layer scale4b_branch2b
I0709 13:07:10.018270 45093 net.cpp:91] Creating Layer scale4b_branch2b
I0709 13:07:10.018273 45093 net.cpp:435] scale4b_branch2b <- res4b_branch2b
I0709 13:07:10.018277 45093 net.cpp:396] scale4b_branch2b -> res4b_branch2b (in-place)
I0709 13:07:10.018288 45093 layer_factory.hpp:77] Creating layer scale4b_branch2b
I0709 13:07:10.018303 45093 net.cpp:141] Setting up scale4b_branch2b
I0709 13:07:10.018308 45093 net.cpp:148] Top shape: 1 256 14 14 (50176)
I0709 13:07:10.018311 45093 net.cpp:156] Memory required for data: 185852188
I0709 13:07:10.018316 45093 layer_factory.hpp:77] Creating layer res4b_branch2b_relu
I0709 13:07:10.018322 45093 net.cpp:91] Creating Layer res4b_branch2b_relu
I0709 13:07:10.018326 45093 net.cpp:435] res4b_branch2b_relu <- res4b_branch2b
I0709 13:07:10.018332 45093 net.cpp:396] res4b_branch2b_relu -> res4b_branch2b (in-place)
I0709 13:07:10.018669 45093 net.cpp:141] Setting up res4b_branch2b_relu
I0709 13:07:10.018681 45093 net.cpp:148] Top shape: 1 256 14 14 (50176)
I0709 13:07:10.018684 45093 net.cpp:156] Memory required for data: 186052892
I0709 13:07:10.018688 45093 layer_factory.hpp:77] Creating layer res4b_branch2c
I0709 13:07:10.018698 45093 net.cpp:91] Creating Layer res4b_branch2c
I0709 13:07:10.018703 45093 net.cpp:435] res4b_branch2c <- res4b_branch2b
I0709 13:07:10.018709 45093 net.cpp:409] res4b_branch2c -> res4b_branch2c
I0709 13:07:10.020244 45093 net.cpp:141] Setting up res4b_branch2c
I0709 13:07:10.020257 45093 net.cpp:148] Top shape: 1 1024 14 14 (200704)
I0709 13:07:10.020262 45093 net.cpp:156] Memory required for data: 186855708
I0709 13:07:10.020268 45093 layer_factory.hpp:77] Creating layer bn4b_branch2c
I0709 13:07:10.020277 45093 net.cpp:91] Creating Layer bn4b_branch2c
I0709 13:07:10.020282 45093 net.cpp:435] bn4b_branch2c <- res4b_branch2c
I0709 13:07:10.020287 45093 net.cpp:396] bn4b_branch2c -> res4b_branch2c (in-place)
I0709 13:07:10.020306 45093 net.cpp:141] Setting up bn4b_branch2c
I0709 13:07:10.020311 45093 net.cpp:148] Top shape: 1 1024 14 14 (200704)
I0709 13:07:10.020315 45093 net.cpp:156] Memory required for data: 187658524
I0709 13:07:10.020334 45093 layer_factory.hpp:77] Creating layer scale4b_branch2c
I0709 13:07:10.020344 45093 net.cpp:91] Creating Layer scale4b_branch2c
I0709 13:07:10.020349 45093 net.cpp:435] scale4b_branch2c <- res4b_branch2c
I0709 13:07:10.020354 45093 net.cpp:396] scale4b_branch2c -> res4b_branch2c (in-place)
I0709 13:07:10.020373 45093 layer_factory.hpp:77] Creating layer scale4b_branch2c
I0709 13:07:10.020391 45093 net.cpp:141] Setting up scale4b_branch2c
I0709 13:07:10.020397 45093 net.cpp:148] Top shape: 1 1024 14 14 (200704)
I0709 13:07:10.020401 45093 net.cpp:156] Memory required for data: 188461340
I0709 13:07:10.020406 45093 layer_factory.hpp:77] Creating layer res4b
I0709 13:07:10.020413 45093 net.cpp:91] Creating Layer res4b
I0709 13:07:10.020417 45093 net.cpp:435] res4b <- res4a_res4a_relu_0_split_1
I0709 13:07:10.020422 45093 net.cpp:435] res4b <- res4b_branch2c
I0709 13:07:10.020428 45093 net.cpp:409] res4b -> res4b
I0709 13:07:10.020436 45093 net.cpp:141] Setting up res4b
I0709 13:07:10.020440 45093 net.cpp:148] Top shape: 1 1024 14 14 (200704)
I0709 13:07:10.020443 45093 net.cpp:156] Memory required for data: 189264156
I0709 13:07:10.020447 45093 layer_factory.hpp:77] Creating layer res4b_relu
I0709 13:07:10.020454 45093 net.cpp:91] Creating Layer res4b_relu
I0709 13:07:10.020458 45093 net.cpp:435] res4b_relu <- res4b
I0709 13:07:10.020463 45093 net.cpp:396] res4b_relu -> res4b (in-place)
I0709 13:07:10.020707 45093 net.cpp:141] Setting up res4b_relu
I0709 13:07:10.020716 45093 net.cpp:148] Top shape: 1 1024 14 14 (200704)
I0709 13:07:10.020720 45093 net.cpp:156] Memory required for data: 190066972
I0709 13:07:10.020725 45093 layer_factory.hpp:77] Creating layer res4b_res4b_relu_0_split
I0709 13:07:10.020731 45093 net.cpp:91] Creating Layer res4b_res4b_relu_0_split
I0709 13:07:10.020735 45093 net.cpp:435] res4b_res4b_relu_0_split <- res4b
I0709 13:07:10.020740 45093 net.cpp:409] res4b_res4b_relu_0_split -> res4b_res4b_relu_0_split_0
I0709 13:07:10.020748 45093 net.cpp:409] res4b_res4b_relu_0_split -> res4b_res4b_relu_0_split_1
I0709 13:07:10.020756 45093 net.cpp:141] Setting up res4b_res4b_relu_0_split
I0709 13:07:10.020761 45093 net.cpp:148] Top shape: 1 1024 14 14 (200704)
I0709 13:07:10.020764 45093 net.cpp:148] Top shape: 1 1024 14 14 (200704)
I0709 13:07:10.020767 45093 net.cpp:156] Memory required for data: 191672604
I0709 13:07:10.020771 45093 layer_factory.hpp:77] Creating layer res4c_branch2a
I0709 13:07:10.020779 45093 net.cpp:91] Creating Layer res4c_branch2a
I0709 13:07:10.020783 45093 net.cpp:435] res4c_branch2a <- res4b_res4b_relu_0_split_0
I0709 13:07:10.020790 45093 net.cpp:409] res4c_branch2a -> res4c_branch2a
I0709 13:07:10.022207 45093 net.cpp:141] Setting up res4c_branch2a
I0709 13:07:10.022218 45093 net.cpp:148] Top shape: 1 256 14 14 (50176)
I0709 13:07:10.022222 45093 net.cpp:156] Memory required for data: 191873308
I0709 13:07:10.022228 45093 layer_factory.hpp:77] Creating layer bn4c_branch2a
I0709 13:07:10.022238 45093 net.cpp:91] Creating Layer bn4c_branch2a
I0709 13:07:10.022243 45093 net.cpp:435] bn4c_branch2a <- res4c_branch2a
I0709 13:07:10.022248 45093 net.cpp:396] bn4c_branch2a -> res4c_branch2a (in-place)
I0709 13:07:10.022265 45093 net.cpp:141] Setting up bn4c_branch2a
I0709 13:07:10.022270 45093 net.cpp:148] Top shape: 1 256 14 14 (50176)
I0709 13:07:10.022274 45093 net.cpp:156] Memory required for data: 192074012
I0709 13:07:10.022280 45093 layer_factory.hpp:77] Creating layer scale4c_branch2a
I0709 13:07:10.022289 45093 net.cpp:91] Creating Layer scale4c_branch2a
I0709 13:07:10.022292 45093 net.cpp:435] scale4c_branch2a <- res4c_branch2a
I0709 13:07:10.022297 45093 net.cpp:396] scale4c_branch2a -> res4c_branch2a (in-place)
I0709 13:07:10.022308 45093 layer_factory.hpp:77] Creating layer scale4c_branch2a
I0709 13:07:10.022325 45093 net.cpp:141] Setting up scale4c_branch2a
I0709 13:07:10.022328 45093 net.cpp:148] Top shape: 1 256 14 14 (50176)
I0709 13:07:10.022332 45093 net.cpp:156] Memory required for data: 192274716
I0709 13:07:10.022337 45093 layer_factory.hpp:77] Creating layer res4c_branch2a_relu
I0709 13:07:10.022356 45093 net.cpp:91] Creating Layer res4c_branch2a_relu
I0709 13:07:10.022361 45093 net.cpp:435] res4c_branch2a_relu <- res4c_branch2a
I0709 13:07:10.022366 45093 net.cpp:396] res4c_branch2a_relu -> res4c_branch2a (in-place)
I0709 13:07:10.022584 45093 net.cpp:141] Setting up res4c_branch2a_relu
I0709 13:07:10.022593 45093 net.cpp:148] Top shape: 1 256 14 14 (50176)
I0709 13:07:10.022596 45093 net.cpp:156] Memory required for data: 192475420
I0709 13:07:10.022599 45093 layer_factory.hpp:77] Creating layer res4c_branch2b
I0709 13:07:10.022609 45093 net.cpp:91] Creating Layer res4c_branch2b
I0709 13:07:10.022614 45093 net.cpp:435] res4c_branch2b <- res4c_branch2a
I0709 13:07:10.022620 45093 net.cpp:409] res4c_branch2b -> res4c_branch2b
I0709 13:07:10.024436 45093 net.cpp:141] Setting up res4c_branch2b
I0709 13:07:10.024448 45093 net.cpp:148] Top shape: 1 256 14 14 (50176)
I0709 13:07:10.024452 45093 net.cpp:156] Memory required for data: 192676124
I0709 13:07:10.024459 45093 layer_factory.hpp:77] Creating layer bn4c_branch2b
I0709 13:07:10.024467 45093 net.cpp:91] Creating Layer bn4c_branch2b
I0709 13:07:10.024472 45093 net.cpp:435] bn4c_branch2b <- res4c_branch2b
I0709 13:07:10.024478 45093 net.cpp:396] bn4c_branch2b -> res4c_branch2b (in-place)
I0709 13:07:10.024497 45093 net.cpp:141] Setting up bn4c_branch2b
I0709 13:07:10.024502 45093 net.cpp:148] Top shape: 1 256 14 14 (50176)
I0709 13:07:10.024505 45093 net.cpp:156] Memory required for data: 192876828
I0709 13:07:10.024513 45093 layer_factory.hpp:77] Creating layer scale4c_branch2b
I0709 13:07:10.024520 45093 net.cpp:91] Creating Layer scale4c_branch2b
I0709 13:07:10.024524 45093 net.cpp:435] scale4c_branch2b <- res4c_branch2b
I0709 13:07:10.024529 45093 net.cpp:396] scale4c_branch2b -> res4c_branch2b (in-place)
I0709 13:07:10.024540 45093 layer_factory.hpp:77] Creating layer scale4c_branch2b
I0709 13:07:10.024556 45093 net.cpp:141] Setting up scale4c_branch2b
I0709 13:07:10.024561 45093 net.cpp:148] Top shape: 1 256 14 14 (50176)
I0709 13:07:10.024564 45093 net.cpp:156] Memory required for data: 193077532
I0709 13:07:10.024570 45093 layer_factory.hpp:77] Creating layer res4c_branch2b_relu
I0709 13:07:10.024576 45093 net.cpp:91] Creating Layer res4c_branch2b_relu
I0709 13:07:10.024580 45093 net.cpp:435] res4c_branch2b_relu <- res4c_branch2b
I0709 13:07:10.024585 45093 net.cpp:396] res4c_branch2b_relu -> res4c_branch2b (in-place)
I0709 13:07:10.025032 45093 net.cpp:141] Setting up res4c_branch2b_relu
I0709 13:07:10.025044 45093 net.cpp:148] Top shape: 1 256 14 14 (50176)
I0709 13:07:10.025048 45093 net.cpp:156] Memory required for data: 193278236
I0709 13:07:10.025053 45093 layer_factory.hpp:77] Creating layer res4c_branch2c
I0709 13:07:10.025063 45093 net.cpp:91] Creating Layer res4c_branch2c
I0709 13:07:10.025068 45093 net.cpp:435] res4c_branch2c <- res4c_branch2b
I0709 13:07:10.025074 45093 net.cpp:409] res4c_branch2c -> res4c_branch2c
I0709 13:07:10.027417 45093 net.cpp:141] Setting up res4c_branch2c
I0709 13:07:10.027431 45093 net.cpp:148] Top shape: 1 1024 14 14 (200704)
I0709 13:07:10.027434 45093 net.cpp:156] Memory required for data: 194081052
I0709 13:07:10.027441 45093 layer_factory.hpp:77] Creating layer bn4c_branch2c
I0709 13:07:10.027449 45093 net.cpp:91] Creating Layer bn4c_branch2c
I0709 13:07:10.027454 45093 net.cpp:435] bn4c_branch2c <- res4c_branch2c
I0709 13:07:10.027461 45093 net.cpp:396] bn4c_branch2c -> res4c_branch2c (in-place)
I0709 13:07:10.027479 45093 net.cpp:141] Setting up bn4c_branch2c
I0709 13:07:10.027484 45093 net.cpp:148] Top shape: 1 1024 14 14 (200704)
I0709 13:07:10.027488 45093 net.cpp:156] Memory required for data: 194883868
I0709 13:07:10.027494 45093 layer_factory.hpp:77] Creating layer scale4c_branch2c
I0709 13:07:10.027503 45093 net.cpp:91] Creating Layer scale4c_branch2c
I0709 13:07:10.027505 45093 net.cpp:435] scale4c_branch2c <- res4c_branch2c
I0709 13:07:10.027511 45093 net.cpp:396] scale4c_branch2c -> res4c_branch2c (in-place)
I0709 13:07:10.027523 45093 layer_factory.hpp:77] Creating layer scale4c_branch2c
I0709 13:07:10.027552 45093 net.cpp:141] Setting up scale4c_branch2c
I0709 13:07:10.027559 45093 net.cpp:148] Top shape: 1 1024 14 14 (200704)
I0709 13:07:10.027562 45093 net.cpp:156] Memory required for data: 195686684
I0709 13:07:10.027567 45093 layer_factory.hpp:77] Creating layer res4c
I0709 13:07:10.027575 45093 net.cpp:91] Creating Layer res4c
I0709 13:07:10.027580 45093 net.cpp:435] res4c <- res4b_res4b_relu_0_split_1
I0709 13:07:10.027585 45093 net.cpp:435] res4c <- res4c_branch2c
I0709 13:07:10.027590 45093 net.cpp:409] res4c -> res4c
I0709 13:07:10.027597 45093 net.cpp:141] Setting up res4c
I0709 13:07:10.027601 45093 net.cpp:148] Top shape: 1 1024 14 14 (200704)
I0709 13:07:10.027604 45093 net.cpp:156] Memory required for data: 196489500
I0709 13:07:10.027608 45093 layer_factory.hpp:77] Creating layer res4c_relu
I0709 13:07:10.027614 45093 net.cpp:91] Creating Layer res4c_relu
I0709 13:07:10.027618 45093 net.cpp:435] res4c_relu <- res4c
I0709 13:07:10.027623 45093 net.cpp:396] res4c_relu -> res4c (in-place)
I0709 13:07:10.027842 45093 net.cpp:141] Setting up res4c_relu
I0709 13:07:10.027851 45093 net.cpp:148] Top shape: 1 1024 14 14 (200704)
I0709 13:07:10.027854 45093 net.cpp:156] Memory required for data: 197292316
I0709 13:07:10.027858 45093 layer_factory.hpp:77] Creating layer res4c_res4c_relu_0_split
I0709 13:07:10.027865 45093 net.cpp:91] Creating Layer res4c_res4c_relu_0_split
I0709 13:07:10.027869 45093 net.cpp:435] res4c_res4c_relu_0_split <- res4c
I0709 13:07:10.027874 45093 net.cpp:409] res4c_res4c_relu_0_split -> res4c_res4c_relu_0_split_0
I0709 13:07:10.027881 45093 net.cpp:409] res4c_res4c_relu_0_split -> res4c_res4c_relu_0_split_1
I0709 13:07:10.027889 45093 net.cpp:141] Setting up res4c_res4c_relu_0_split
I0709 13:07:10.027892 45093 net.cpp:148] Top shape: 1 1024 14 14 (200704)
I0709 13:07:10.027896 45093 net.cpp:148] Top shape: 1 1024 14 14 (200704)
I0709 13:07:10.027899 45093 net.cpp:156] Memory required for data: 198897948
I0709 13:07:10.027902 45093 layer_factory.hpp:77] Creating layer res4d_branch2a
I0709 13:07:10.027911 45093 net.cpp:91] Creating Layer res4d_branch2a
I0709 13:07:10.027915 45093 net.cpp:435] res4d_branch2a <- res4c_res4c_relu_0_split_0
I0709 13:07:10.027921 45093 net.cpp:409] res4d_branch2a -> res4d_branch2a
I0709 13:07:10.029405 45093 net.cpp:141] Setting up res4d_branch2a
I0709 13:07:10.029418 45093 net.cpp:148] Top shape: 1 256 14 14 (50176)
I0709 13:07:10.029422 45093 net.cpp:156] Memory required for data: 199098652
I0709 13:07:10.029428 45093 layer_factory.hpp:77] Creating layer bn4d_branch2a
I0709 13:07:10.029438 45093 net.cpp:91] Creating Layer bn4d_branch2a
I0709 13:07:10.029443 45093 net.cpp:435] bn4d_branch2a <- res4d_branch2a
I0709 13:07:10.029448 45093 net.cpp:396] bn4d_branch2a -> res4d_branch2a (in-place)
I0709 13:07:10.029465 45093 net.cpp:141] Setting up bn4d_branch2a
I0709 13:07:10.029470 45093 net.cpp:148] Top shape: 1 256 14 14 (50176)
I0709 13:07:10.029474 45093 net.cpp:156] Memory required for data: 199299356
I0709 13:07:10.029481 45093 layer_factory.hpp:77] Creating layer scale4d_branch2a
I0709 13:07:10.029489 45093 net.cpp:91] Creating Layer scale4d_branch2a
I0709 13:07:10.029492 45093 net.cpp:435] scale4d_branch2a <- res4d_branch2a
I0709 13:07:10.029497 45093 net.cpp:396] scale4d_branch2a -> res4d_branch2a (in-place)
I0709 13:07:10.029508 45093 layer_factory.hpp:77] Creating layer scale4d_branch2a
I0709 13:07:10.029525 45093 net.cpp:141] Setting up scale4d_branch2a
I0709 13:07:10.029530 45093 net.cpp:148] Top shape: 1 256 14 14 (50176)
I0709 13:07:10.029533 45093 net.cpp:156] Memory required for data: 199500060
I0709 13:07:10.029538 45093 layer_factory.hpp:77] Creating layer res4d_branch2a_relu
I0709 13:07:10.029544 45093 net.cpp:91] Creating Layer res4d_branch2a_relu
I0709 13:07:10.029548 45093 net.cpp:435] res4d_branch2a_relu <- res4d_branch2a
I0709 13:07:10.029553 45093 net.cpp:396] res4d_branch2a_relu -> res4d_branch2a (in-place)
I0709 13:07:10.029772 45093 net.cpp:141] Setting up res4d_branch2a_relu
I0709 13:07:10.029793 45093 net.cpp:148] Top shape: 1 256 14 14 (50176)
I0709 13:07:10.029798 45093 net.cpp:156] Memory required for data: 199700764
I0709 13:07:10.029801 45093 layer_factory.hpp:77] Creating layer res4d_branch2b
I0709 13:07:10.029811 45093 net.cpp:91] Creating Layer res4d_branch2b
I0709 13:07:10.029815 45093 net.cpp:435] res4d_branch2b <- res4d_branch2a
I0709 13:07:10.029822 45093 net.cpp:409] res4d_branch2b -> res4d_branch2b
I0709 13:07:10.031931 45093 net.cpp:141] Setting up res4d_branch2b
I0709 13:07:10.031944 45093 net.cpp:148] Top shape: 1 256 14 14 (50176)
I0709 13:07:10.031947 45093 net.cpp:156] Memory required for data: 199901468
I0709 13:07:10.031955 45093 layer_factory.hpp:77] Creating layer bn4d_branch2b
I0709 13:07:10.031963 45093 net.cpp:91] Creating Layer bn4d_branch2b
I0709 13:07:10.031968 45093 net.cpp:435] bn4d_branch2b <- res4d_branch2b
I0709 13:07:10.031975 45093 net.cpp:396] bn4d_branch2b -> res4d_branch2b (in-place)
I0709 13:07:10.031992 45093 net.cpp:141] Setting up bn4d_branch2b
I0709 13:07:10.031997 45093 net.cpp:148] Top shape: 1 256 14 14 (50176)
I0709 13:07:10.032001 45093 net.cpp:156] Memory required for data: 200102172
I0709 13:07:10.032007 45093 layer_factory.hpp:77] Creating layer scale4d_branch2b
I0709 13:07:10.032016 45093 net.cpp:91] Creating Layer scale4d_branch2b
I0709 13:07:10.032019 45093 net.cpp:435] scale4d_branch2b <- res4d_branch2b
I0709 13:07:10.032026 45093 net.cpp:396] scale4d_branch2b -> res4d_branch2b (in-place)
I0709 13:07:10.032037 45093 layer_factory.hpp:77] Creating layer scale4d_branch2b
I0709 13:07:10.032052 45093 net.cpp:141] Setting up scale4d_branch2b
I0709 13:07:10.032058 45093 net.cpp:148] Top shape: 1 256 14 14 (50176)
I0709 13:07:10.032060 45093 net.cpp:156] Memory required for data: 200302876
I0709 13:07:10.032066 45093 layer_factory.hpp:77] Creating layer res4d_branch2b_relu
I0709 13:07:10.032073 45093 net.cpp:91] Creating Layer res4d_branch2b_relu
I0709 13:07:10.032076 45093 net.cpp:435] res4d_branch2b_relu <- res4d_branch2b
I0709 13:07:10.032081 45093 net.cpp:396] res4d_branch2b_relu -> res4d_branch2b (in-place)
I0709 13:07:10.032438 45093 net.cpp:141] Setting up res4d_branch2b_relu
I0709 13:07:10.032449 45093 net.cpp:148] Top shape: 1 256 14 14 (50176)
I0709 13:07:10.032454 45093 net.cpp:156] Memory required for data: 200503580
I0709 13:07:10.032457 45093 layer_factory.hpp:77] Creating layer res4d_branch2c
I0709 13:07:10.032467 45093 net.cpp:91] Creating Layer res4d_branch2c
I0709 13:07:10.032472 45093 net.cpp:435] res4d_branch2c <- res4d_branch2b
I0709 13:07:10.032480 45093 net.cpp:409] res4d_branch2c -> res4d_branch2c
I0709 13:07:10.033896 45093 net.cpp:141] Setting up res4d_branch2c
I0709 13:07:10.033908 45093 net.cpp:148] Top shape: 1 1024 14 14 (200704)
I0709 13:07:10.033912 45093 net.cpp:156] Memory required for data: 201306396
I0709 13:07:10.033918 45093 layer_factory.hpp:77] Creating layer bn4d_branch2c
I0709 13:07:10.033927 45093 net.cpp:91] Creating Layer bn4d_branch2c
I0709 13:07:10.033932 45093 net.cpp:435] bn4d_branch2c <- res4d_branch2c
I0709 13:07:10.033938 45093 net.cpp:396] bn4d_branch2c -> res4d_branch2c (in-place)
I0709 13:07:10.033958 45093 net.cpp:141] Setting up bn4d_branch2c
I0709 13:07:10.033963 45093 net.cpp:148] Top shape: 1 1024 14 14 (200704)
I0709 13:07:10.033967 45093 net.cpp:156] Memory required for data: 202109212
I0709 13:07:10.033974 45093 layer_factory.hpp:77] Creating layer scale4d_branch2c
I0709 13:07:10.033982 45093 net.cpp:91] Creating Layer scale4d_branch2c
I0709 13:07:10.033985 45093 net.cpp:435] scale4d_branch2c <- res4d_branch2c
I0709 13:07:10.033992 45093 net.cpp:396] scale4d_branch2c -> res4d_branch2c (in-place)
I0709 13:07:10.034004 45093 layer_factory.hpp:77] Creating layer scale4d_branch2c
I0709 13:07:10.034020 45093 net.cpp:141] Setting up scale4d_branch2c
I0709 13:07:10.034025 45093 net.cpp:148] Top shape: 1 1024 14 14 (200704)
I0709 13:07:10.034029 45093 net.cpp:156] Memory required for data: 202912028
I0709 13:07:10.034034 45093 layer_factory.hpp:77] Creating layer res4d
I0709 13:07:10.034054 45093 net.cpp:91] Creating Layer res4d
I0709 13:07:10.034059 45093 net.cpp:435] res4d <- res4c_res4c_relu_0_split_1
I0709 13:07:10.034065 45093 net.cpp:435] res4d <- res4d_branch2c
I0709 13:07:10.034070 45093 net.cpp:409] res4d -> res4d
I0709 13:07:10.034077 45093 net.cpp:141] Setting up res4d
I0709 13:07:10.034082 45093 net.cpp:148] Top shape: 1 1024 14 14 (200704)
I0709 13:07:10.034086 45093 net.cpp:156] Memory required for data: 203714844
I0709 13:07:10.034090 45093 layer_factory.hpp:77] Creating layer res4d_relu
I0709 13:07:10.034096 45093 net.cpp:91] Creating Layer res4d_relu
I0709 13:07:10.034101 45093 net.cpp:435] res4d_relu <- res4d
I0709 13:07:10.034104 45093 net.cpp:396] res4d_relu -> res4d (in-place)
I0709 13:07:10.034328 45093 net.cpp:141] Setting up res4d_relu
I0709 13:07:10.034337 45093 net.cpp:148] Top shape: 1 1024 14 14 (200704)
I0709 13:07:10.034342 45093 net.cpp:156] Memory required for data: 204517660
I0709 13:07:10.034345 45093 layer_factory.hpp:77] Creating layer res4d_res4d_relu_0_split
I0709 13:07:10.034353 45093 net.cpp:91] Creating Layer res4d_res4d_relu_0_split
I0709 13:07:10.034358 45093 net.cpp:435] res4d_res4d_relu_0_split <- res4d
I0709 13:07:10.034363 45093 net.cpp:409] res4d_res4d_relu_0_split -> res4d_res4d_relu_0_split_0
I0709 13:07:10.034370 45093 net.cpp:409] res4d_res4d_relu_0_split -> res4d_res4d_relu_0_split_1
I0709 13:07:10.034379 45093 net.cpp:141] Setting up res4d_res4d_relu_0_split
I0709 13:07:10.034384 45093 net.cpp:148] Top shape: 1 1024 14 14 (200704)
I0709 13:07:10.034387 45093 net.cpp:148] Top shape: 1 1024 14 14 (200704)
I0709 13:07:10.034390 45093 net.cpp:156] Memory required for data: 206123292
I0709 13:07:10.034394 45093 layer_factory.hpp:77] Creating layer res4e_branch2a
I0709 13:07:10.034404 45093 net.cpp:91] Creating Layer res4e_branch2a
I0709 13:07:10.034407 45093 net.cpp:435] res4e_branch2a <- res4d_res4d_relu_0_split_0
I0709 13:07:10.034413 45093 net.cpp:409] res4e_branch2a -> res4e_branch2a
I0709 13:07:10.035831 45093 net.cpp:141] Setting up res4e_branch2a
I0709 13:07:10.035843 45093 net.cpp:148] Top shape: 1 256 14 14 (50176)
I0709 13:07:10.035847 45093 net.cpp:156] Memory required for data: 206323996
I0709 13:07:10.035854 45093 layer_factory.hpp:77] Creating layer bn4e_branch2a
I0709 13:07:10.035862 45093 net.cpp:91] Creating Layer bn4e_branch2a
I0709 13:07:10.035868 45093 net.cpp:435] bn4e_branch2a <- res4e_branch2a
I0709 13:07:10.035873 45093 net.cpp:396] bn4e_branch2a -> res4e_branch2a (in-place)
I0709 13:07:10.035892 45093 net.cpp:141] Setting up bn4e_branch2a
I0709 13:07:10.035897 45093 net.cpp:148] Top shape: 1 256 14 14 (50176)
I0709 13:07:10.035900 45093 net.cpp:156] Memory required for data: 206524700
I0709 13:07:10.035907 45093 layer_factory.hpp:77] Creating layer scale4e_branch2a
I0709 13:07:10.035915 45093 net.cpp:91] Creating Layer scale4e_branch2a
I0709 13:07:10.035919 45093 net.cpp:435] scale4e_branch2a <- res4e_branch2a
I0709 13:07:10.035924 45093 net.cpp:396] scale4e_branch2a -> res4e_branch2a (in-place)
I0709 13:07:10.035935 45093 layer_factory.hpp:77] Creating layer scale4e_branch2a
I0709 13:07:10.035953 45093 net.cpp:141] Setting up scale4e_branch2a
I0709 13:07:10.035958 45093 net.cpp:148] Top shape: 1 256 14 14 (50176)
I0709 13:07:10.035960 45093 net.cpp:156] Memory required for data: 206725404
I0709 13:07:10.035965 45093 layer_factory.hpp:77] Creating layer res4e_branch2a_relu
I0709 13:07:10.035972 45093 net.cpp:91] Creating Layer res4e_branch2a_relu
I0709 13:07:10.035976 45093 net.cpp:435] res4e_branch2a_relu <- res4e_branch2a
I0709 13:07:10.035981 45093 net.cpp:396] res4e_branch2a_relu -> res4e_branch2a (in-place)
I0709 13:07:10.036226 45093 net.cpp:141] Setting up res4e_branch2a_relu
I0709 13:07:10.036234 45093 net.cpp:148] Top shape: 1 256 14 14 (50176)
I0709 13:07:10.036237 45093 net.cpp:156] Memory required for data: 206926108
I0709 13:07:10.036242 45093 layer_factory.hpp:77] Creating layer res4e_branch2b
I0709 13:07:10.036252 45093 net.cpp:91] Creating Layer res4e_branch2b
I0709 13:07:10.036257 45093 net.cpp:435] res4e_branch2b <- res4e_branch2a
I0709 13:07:10.036276 45093 net.cpp:409] res4e_branch2b -> res4e_branch2b
I0709 13:07:10.038414 45093 net.cpp:141] Setting up res4e_branch2b
I0709 13:07:10.038427 45093 net.cpp:148] Top shape: 1 256 14 14 (50176)
I0709 13:07:10.038431 45093 net.cpp:156] Memory required for data: 207126812
I0709 13:07:10.038439 45093 layer_factory.hpp:77] Creating layer bn4e_branch2b
I0709 13:07:10.038447 45093 net.cpp:91] Creating Layer bn4e_branch2b
I0709 13:07:10.038452 45093 net.cpp:435] bn4e_branch2b <- res4e_branch2b
I0709 13:07:10.038458 45093 net.cpp:396] bn4e_branch2b -> res4e_branch2b (in-place)
I0709 13:07:10.038476 45093 net.cpp:141] Setting up bn4e_branch2b
I0709 13:07:10.038481 45093 net.cpp:148] Top shape: 1 256 14 14 (50176)
I0709 13:07:10.038485 45093 net.cpp:156] Memory required for data: 207327516
I0709 13:07:10.038491 45093 layer_factory.hpp:77] Creating layer scale4e_branch2b
I0709 13:07:10.038499 45093 net.cpp:91] Creating Layer scale4e_branch2b
I0709 13:07:10.038503 45093 net.cpp:435] scale4e_branch2b <- res4e_branch2b
I0709 13:07:10.038508 45093 net.cpp:396] scale4e_branch2b -> res4e_branch2b (in-place)
I0709 13:07:10.038521 45093 layer_factory.hpp:77] Creating layer scale4e_branch2b
I0709 13:07:10.038537 45093 net.cpp:141] Setting up scale4e_branch2b
I0709 13:07:10.038542 45093 net.cpp:148] Top shape: 1 256 14 14 (50176)
I0709 13:07:10.038544 45093 net.cpp:156] Memory required for data: 207528220
I0709 13:07:10.038550 45093 layer_factory.hpp:77] Creating layer res4e_branch2b_relu
I0709 13:07:10.038557 45093 net.cpp:91] Creating Layer res4e_branch2b_relu
I0709 13:07:10.038560 45093 net.cpp:435] res4e_branch2b_relu <- res4e_branch2b
I0709 13:07:10.038565 45093 net.cpp:396] res4e_branch2b_relu -> res4e_branch2b (in-place)
I0709 13:07:10.038914 45093 net.cpp:141] Setting up res4e_branch2b_relu
I0709 13:07:10.038926 45093 net.cpp:148] Top shape: 1 256 14 14 (50176)
I0709 13:07:10.038929 45093 net.cpp:156] Memory required for data: 207728924
I0709 13:07:10.038933 45093 layer_factory.hpp:77] Creating layer res4e_branch2c
I0709 13:07:10.038944 45093 net.cpp:91] Creating Layer res4e_branch2c
I0709 13:07:10.038949 45093 net.cpp:435] res4e_branch2c <- res4e_branch2b
I0709 13:07:10.038956 45093 net.cpp:409] res4e_branch2c -> res4e_branch2c
I0709 13:07:10.040393 45093 net.cpp:141] Setting up res4e_branch2c
I0709 13:07:10.040406 45093 net.cpp:148] Top shape: 1 1024 14 14 (200704)
I0709 13:07:10.040410 45093 net.cpp:156] Memory required for data: 208531740
I0709 13:07:10.040416 45093 layer_factory.hpp:77] Creating layer bn4e_branch2c
I0709 13:07:10.040424 45093 net.cpp:91] Creating Layer bn4e_branch2c
I0709 13:07:10.040429 45093 net.cpp:435] bn4e_branch2c <- res4e_branch2c
I0709 13:07:10.040436 45093 net.cpp:396] bn4e_branch2c -> res4e_branch2c (in-place)
I0709 13:07:10.040455 45093 net.cpp:141] Setting up bn4e_branch2c
I0709 13:07:10.040460 45093 net.cpp:148] Top shape: 1 1024 14 14 (200704)
I0709 13:07:10.040463 45093 net.cpp:156] Memory required for data: 209334556
I0709 13:07:10.040470 45093 layer_factory.hpp:77] Creating layer scale4e_branch2c
I0709 13:07:10.040478 45093 net.cpp:91] Creating Layer scale4e_branch2c
I0709 13:07:10.040483 45093 net.cpp:435] scale4e_branch2c <- res4e_branch2c
I0709 13:07:10.040488 45093 net.cpp:396] scale4e_branch2c -> res4e_branch2c (in-place)
I0709 13:07:10.040500 45093 layer_factory.hpp:77] Creating layer scale4e_branch2c
I0709 13:07:10.040518 45093 net.cpp:141] Setting up scale4e_branch2c
I0709 13:07:10.040523 45093 net.cpp:148] Top shape: 1 1024 14 14 (200704)
I0709 13:07:10.040525 45093 net.cpp:156] Memory required for data: 210137372
I0709 13:07:10.040531 45093 layer_factory.hpp:77] Creating layer res4e
I0709 13:07:10.040539 45093 net.cpp:91] Creating Layer res4e
I0709 13:07:10.040542 45093 net.cpp:435] res4e <- res4d_res4d_relu_0_split_1
I0709 13:07:10.040546 45093 net.cpp:435] res4e <- res4e_branch2c
I0709 13:07:10.040552 45093 net.cpp:409] res4e -> res4e
I0709 13:07:10.040560 45093 net.cpp:141] Setting up res4e
I0709 13:07:10.040565 45093 net.cpp:148] Top shape: 1 1024 14 14 (200704)
I0709 13:07:10.040580 45093 net.cpp:156] Memory required for data: 210940188
I0709 13:07:10.040585 45093 layer_factory.hpp:77] Creating layer res4e_relu
I0709 13:07:10.040591 45093 net.cpp:91] Creating Layer res4e_relu
I0709 13:07:10.040596 45093 net.cpp:435] res4e_relu <- res4e
I0709 13:07:10.040601 45093 net.cpp:396] res4e_relu -> res4e (in-place)
I0709 13:07:10.040828 45093 net.cpp:141] Setting up res4e_relu
I0709 13:07:10.040838 45093 net.cpp:148] Top shape: 1 1024 14 14 (200704)
I0709 13:07:10.040840 45093 net.cpp:156] Memory required for data: 211743004
I0709 13:07:10.040844 45093 layer_factory.hpp:77] Creating layer res4e_res4e_relu_0_split
I0709 13:07:10.040850 45093 net.cpp:91] Creating Layer res4e_res4e_relu_0_split
I0709 13:07:10.040854 45093 net.cpp:435] res4e_res4e_relu_0_split <- res4e
I0709 13:07:10.040860 45093 net.cpp:409] res4e_res4e_relu_0_split -> res4e_res4e_relu_0_split_0
I0709 13:07:10.040868 45093 net.cpp:409] res4e_res4e_relu_0_split -> res4e_res4e_relu_0_split_1
I0709 13:07:10.040874 45093 net.cpp:141] Setting up res4e_res4e_relu_0_split
I0709 13:07:10.040879 45093 net.cpp:148] Top shape: 1 1024 14 14 (200704)
I0709 13:07:10.040882 45093 net.cpp:148] Top shape: 1 1024 14 14 (200704)
I0709 13:07:10.040885 45093 net.cpp:156] Memory required for data: 213348636
I0709 13:07:10.040889 45093 layer_factory.hpp:77] Creating layer res4f_branch2a
I0709 13:07:10.040897 45093 net.cpp:91] Creating Layer res4f_branch2a
I0709 13:07:10.040902 45093 net.cpp:435] res4f_branch2a <- res4e_res4e_relu_0_split_0
I0709 13:07:10.040909 45093 net.cpp:409] res4f_branch2a -> res4f_branch2a
I0709 13:07:10.042327 45093 net.cpp:141] Setting up res4f_branch2a
I0709 13:07:10.042340 45093 net.cpp:148] Top shape: 1 256 14 14 (50176)
I0709 13:07:10.042343 45093 net.cpp:156] Memory required for data: 213549340
I0709 13:07:10.042351 45093 layer_factory.hpp:77] Creating layer bn4f_branch2a
I0709 13:07:10.042359 45093 net.cpp:91] Creating Layer bn4f_branch2a
I0709 13:07:10.042364 45093 net.cpp:435] bn4f_branch2a <- res4f_branch2a
I0709 13:07:10.042371 45093 net.cpp:396] bn4f_branch2a -> res4f_branch2a (in-place)
I0709 13:07:10.042388 45093 net.cpp:141] Setting up bn4f_branch2a
I0709 13:07:10.042394 45093 net.cpp:148] Top shape: 1 256 14 14 (50176)
I0709 13:07:10.042397 45093 net.cpp:156] Memory required for data: 213750044
I0709 13:07:10.042404 45093 layer_factory.hpp:77] Creating layer scale4f_branch2a
I0709 13:07:10.042412 45093 net.cpp:91] Creating Layer scale4f_branch2a
I0709 13:07:10.042415 45093 net.cpp:435] scale4f_branch2a <- res4f_branch2a
I0709 13:07:10.042420 45093 net.cpp:396] scale4f_branch2a -> res4f_branch2a (in-place)
I0709 13:07:10.042431 45093 layer_factory.hpp:77] Creating layer scale4f_branch2a
I0709 13:07:10.042448 45093 net.cpp:141] Setting up scale4f_branch2a
I0709 13:07:10.042453 45093 net.cpp:148] Top shape: 1 256 14 14 (50176)
I0709 13:07:10.042456 45093 net.cpp:156] Memory required for data: 213950748
I0709 13:07:10.042461 45093 layer_factory.hpp:77] Creating layer res4f_branch2a_relu
I0709 13:07:10.042467 45093 net.cpp:91] Creating Layer res4f_branch2a_relu
I0709 13:07:10.042471 45093 net.cpp:435] res4f_branch2a_relu <- res4f_branch2a
I0709 13:07:10.042476 45093 net.cpp:396] res4f_branch2a_relu -> res4f_branch2a (in-place)
I0709 13:07:10.042804 45093 net.cpp:141] Setting up res4f_branch2a_relu
I0709 13:07:10.042815 45093 net.cpp:148] Top shape: 1 256 14 14 (50176)
I0709 13:07:10.042819 45093 net.cpp:156] Memory required for data: 214151452
I0709 13:07:10.042824 45093 layer_factory.hpp:77] Creating layer res4f_branch2b
I0709 13:07:10.042832 45093 net.cpp:91] Creating Layer res4f_branch2b
I0709 13:07:10.042837 45093 net.cpp:435] res4f_branch2b <- res4f_branch2a
I0709 13:07:10.042843 45093 net.cpp:409] res4f_branch2b -> res4f_branch2b
I0709 13:07:10.044960 45093 net.cpp:141] Setting up res4f_branch2b
I0709 13:07:10.044972 45093 net.cpp:148] Top shape: 1 256 14 14 (50176)
I0709 13:07:10.044976 45093 net.cpp:156] Memory required for data: 214352156
I0709 13:07:10.044982 45093 layer_factory.hpp:77] Creating layer bn4f_branch2b
I0709 13:07:10.045003 45093 net.cpp:91] Creating Layer bn4f_branch2b
I0709 13:07:10.045009 45093 net.cpp:435] bn4f_branch2b <- res4f_branch2b
I0709 13:07:10.045014 45093 net.cpp:396] bn4f_branch2b -> res4f_branch2b (in-place)
I0709 13:07:10.045033 45093 net.cpp:141] Setting up bn4f_branch2b
I0709 13:07:10.045038 45093 net.cpp:148] Top shape: 1 256 14 14 (50176)
I0709 13:07:10.045042 45093 net.cpp:156] Memory required for data: 214552860
I0709 13:07:10.045049 45093 layer_factory.hpp:77] Creating layer scale4f_branch2b
I0709 13:07:10.045058 45093 net.cpp:91] Creating Layer scale4f_branch2b
I0709 13:07:10.045061 45093 net.cpp:435] scale4f_branch2b <- res4f_branch2b
I0709 13:07:10.045068 45093 net.cpp:396] scale4f_branch2b -> res4f_branch2b (in-place)
I0709 13:07:10.045079 45093 layer_factory.hpp:77] Creating layer scale4f_branch2b
I0709 13:07:10.045096 45093 net.cpp:141] Setting up scale4f_branch2b
I0709 13:07:10.045101 45093 net.cpp:148] Top shape: 1 256 14 14 (50176)
I0709 13:07:10.045104 45093 net.cpp:156] Memory required for data: 214753564
I0709 13:07:10.045110 45093 layer_factory.hpp:77] Creating layer res4f_branch2b_relu
I0709 13:07:10.045116 45093 net.cpp:91] Creating Layer res4f_branch2b_relu
I0709 13:07:10.045120 45093 net.cpp:435] res4f_branch2b_relu <- res4f_branch2b
I0709 13:07:10.045125 45093 net.cpp:396] res4f_branch2b_relu -> res4f_branch2b (in-place)
I0709 13:07:10.045478 45093 net.cpp:141] Setting up res4f_branch2b_relu
I0709 13:07:10.045490 45093 net.cpp:148] Top shape: 1 256 14 14 (50176)
I0709 13:07:10.045495 45093 net.cpp:156] Memory required for data: 214954268
I0709 13:07:10.045498 45093 layer_factory.hpp:77] Creating layer res4f_branch2c
I0709 13:07:10.045509 45093 net.cpp:91] Creating Layer res4f_branch2c
I0709 13:07:10.045513 45093 net.cpp:435] res4f_branch2c <- res4f_branch2b
I0709 13:07:10.045521 45093 net.cpp:409] res4f_branch2c -> res4f_branch2c
I0709 13:07:10.046952 45093 net.cpp:141] Setting up res4f_branch2c
I0709 13:07:10.046965 45093 net.cpp:148] Top shape: 1 1024 14 14 (200704)
I0709 13:07:10.046969 45093 net.cpp:156] Memory required for data: 215757084
I0709 13:07:10.046975 45093 layer_factory.hpp:77] Creating layer bn4f_branch2c
I0709 13:07:10.046984 45093 net.cpp:91] Creating Layer bn4f_branch2c
I0709 13:07:10.046989 45093 net.cpp:435] bn4f_branch2c <- res4f_branch2c
I0709 13:07:10.046995 45093 net.cpp:396] bn4f_branch2c -> res4f_branch2c (in-place)
I0709 13:07:10.047014 45093 net.cpp:141] Setting up bn4f_branch2c
I0709 13:07:10.047019 45093 net.cpp:148] Top shape: 1 1024 14 14 (200704)
I0709 13:07:10.047024 45093 net.cpp:156] Memory required for data: 216559900
I0709 13:07:10.047044 45093 layer_factory.hpp:77] Creating layer scale4f_branch2c
I0709 13:07:10.047051 45093 net.cpp:91] Creating Layer scale4f_branch2c
I0709 13:07:10.047055 45093 net.cpp:435] scale4f_branch2c <- res4f_branch2c
I0709 13:07:10.047061 45093 net.cpp:396] scale4f_branch2c -> res4f_branch2c (in-place)
I0709 13:07:10.047073 45093 layer_factory.hpp:77] Creating layer scale4f_branch2c
I0709 13:07:10.047091 45093 net.cpp:141] Setting up scale4f_branch2c
I0709 13:07:10.047096 45093 net.cpp:148] Top shape: 1 1024 14 14 (200704)
I0709 13:07:10.047099 45093 net.cpp:156] Memory required for data: 217362716
I0709 13:07:10.047104 45093 layer_factory.hpp:77] Creating layer res4f
I0709 13:07:10.047112 45093 net.cpp:91] Creating Layer res4f
I0709 13:07:10.047116 45093 net.cpp:435] res4f <- res4e_res4e_relu_0_split_1
I0709 13:07:10.047122 45093 net.cpp:435] res4f <- res4f_branch2c
I0709 13:07:10.047127 45093 net.cpp:409] res4f -> res4f
I0709 13:07:10.047134 45093 net.cpp:141] Setting up res4f
I0709 13:07:10.047139 45093 net.cpp:148] Top shape: 1 1024 14 14 (200704)
I0709 13:07:10.047142 45093 net.cpp:156] Memory required for data: 218165532
I0709 13:07:10.047147 45093 layer_factory.hpp:77] Creating layer res4f_relu
I0709 13:07:10.047152 45093 net.cpp:91] Creating Layer res4f_relu
I0709 13:07:10.047157 45093 net.cpp:435] res4f_relu <- res4f
I0709 13:07:10.047160 45093 net.cpp:396] res4f_relu -> res4f (in-place)
I0709 13:07:10.047400 45093 net.cpp:141] Setting up res4f_relu
I0709 13:07:10.047410 45093 net.cpp:148] Top shape: 1 1024 14 14 (200704)
I0709 13:07:10.047413 45093 net.cpp:156] Memory required for data: 218968348
I0709 13:07:10.047416 45093 layer_factory.hpp:77] Creating layer res4f_res4f_relu_0_split
I0709 13:07:10.047423 45093 net.cpp:91] Creating Layer res4f_res4f_relu_0_split
I0709 13:07:10.047427 45093 net.cpp:435] res4f_res4f_relu_0_split <- res4f
I0709 13:07:10.047432 45093 net.cpp:409] res4f_res4f_relu_0_split -> res4f_res4f_relu_0_split_0
I0709 13:07:10.047440 45093 net.cpp:409] res4f_res4f_relu_0_split -> res4f_res4f_relu_0_split_1
I0709 13:07:10.047446 45093 net.cpp:141] Setting up res4f_res4f_relu_0_split
I0709 13:07:10.047451 45093 net.cpp:148] Top shape: 1 1024 14 14 (200704)
I0709 13:07:10.047456 45093 net.cpp:148] Top shape: 1 1024 14 14 (200704)
I0709 13:07:10.047458 45093 net.cpp:156] Memory required for data: 220573980
I0709 13:07:10.047461 45093 layer_factory.hpp:77] Creating layer res5a_branch1
I0709 13:07:10.047471 45093 net.cpp:91] Creating Layer res5a_branch1
I0709 13:07:10.047474 45093 net.cpp:435] res5a_branch1 <- res4f_res4f_relu_0_split_0
I0709 13:07:10.047480 45093 net.cpp:409] res5a_branch1 -> res5a_branch1
I0709 13:07:10.051638 45093 net.cpp:141] Setting up res5a_branch1
I0709 13:07:10.051651 45093 net.cpp:148] Top shape: 1 2048 14 14 (401408)
I0709 13:07:10.051654 45093 net.cpp:156] Memory required for data: 222179612
I0709 13:07:10.051661 45093 layer_factory.hpp:77] Creating layer bn5a_branch1
I0709 13:07:10.051668 45093 net.cpp:91] Creating Layer bn5a_branch1
I0709 13:07:10.051673 45093 net.cpp:435] bn5a_branch1 <- res5a_branch1
I0709 13:07:10.051681 45093 net.cpp:396] bn5a_branch1 -> res5a_branch1 (in-place)
I0709 13:07:10.051703 45093 net.cpp:141] Setting up bn5a_branch1
I0709 13:07:10.051708 45093 net.cpp:148] Top shape: 1 2048 14 14 (401408)
I0709 13:07:10.051712 45093 net.cpp:156] Memory required for data: 223785244
I0709 13:07:10.051718 45093 layer_factory.hpp:77] Creating layer scale5a_branch1
I0709 13:07:10.051726 45093 net.cpp:91] Creating Layer scale5a_branch1
I0709 13:07:10.051730 45093 net.cpp:435] scale5a_branch1 <- res5a_branch1
I0709 13:07:10.051736 45093 net.cpp:396] scale5a_branch1 -> res5a_branch1 (in-place)
I0709 13:07:10.051749 45093 layer_factory.hpp:77] Creating layer scale5a_branch1
I0709 13:07:10.051770 45093 net.cpp:141] Setting up scale5a_branch1
I0709 13:07:10.051775 45093 net.cpp:148] Top shape: 1 2048 14 14 (401408)
I0709 13:07:10.051779 45093 net.cpp:156] Memory required for data: 225390876
I0709 13:07:10.051784 45093 layer_factory.hpp:77] Creating layer res5a_branch2a
I0709 13:07:10.051794 45093 net.cpp:91] Creating Layer res5a_branch2a
I0709 13:07:10.051797 45093 net.cpp:435] res5a_branch2a <- res4f_res4f_relu_0_split_1
I0709 13:07:10.051805 45093 net.cpp:409] res5a_branch2a -> res5a_branch2a
I0709 13:07:10.053814 45093 net.cpp:141] Setting up res5a_branch2a
I0709 13:07:10.053828 45093 net.cpp:148] Top shape: 1 512 14 14 (100352)
I0709 13:07:10.053831 45093 net.cpp:156] Memory required for data: 225792284
I0709 13:07:10.053838 45093 layer_factory.hpp:77] Creating layer bn5a_branch2a
I0709 13:07:10.053848 45093 net.cpp:91] Creating Layer bn5a_branch2a
I0709 13:07:10.053853 45093 net.cpp:435] bn5a_branch2a <- res5a_branch2a
I0709 13:07:10.053858 45093 net.cpp:396] bn5a_branch2a -> res5a_branch2a (in-place)
I0709 13:07:10.053879 45093 net.cpp:141] Setting up bn5a_branch2a
I0709 13:07:10.053884 45093 net.cpp:148] Top shape: 1 512 14 14 (100352)
I0709 13:07:10.053887 45093 net.cpp:156] Memory required for data: 226193692
I0709 13:07:10.053894 45093 layer_factory.hpp:77] Creating layer scale5a_branch2a
I0709 13:07:10.053902 45093 net.cpp:91] Creating Layer scale5a_branch2a
I0709 13:07:10.053906 45093 net.cpp:435] scale5a_branch2a <- res5a_branch2a
I0709 13:07:10.053912 45093 net.cpp:396] scale5a_branch2a -> res5a_branch2a (in-place)
I0709 13:07:10.053925 45093 layer_factory.hpp:77] Creating layer scale5a_branch2a
I0709 13:07:10.053943 45093 net.cpp:141] Setting up scale5a_branch2a
I0709 13:07:10.053961 45093 net.cpp:148] Top shape: 1 512 14 14 (100352)
I0709 13:07:10.053966 45093 net.cpp:156] Memory required for data: 226595100
I0709 13:07:10.053972 45093 layer_factory.hpp:77] Creating layer res5a_branch2a_relu
I0709 13:07:10.053978 45093 net.cpp:91] Creating Layer res5a_branch2a_relu
I0709 13:07:10.053982 45093 net.cpp:435] res5a_branch2a_relu <- res5a_branch2a
I0709 13:07:10.053987 45093 net.cpp:396] res5a_branch2a_relu -> res5a_branch2a (in-place)
I0709 13:07:10.054216 45093 net.cpp:141] Setting up res5a_branch2a_relu
I0709 13:07:10.054226 45093 net.cpp:148] Top shape: 1 512 14 14 (100352)
I0709 13:07:10.054229 45093 net.cpp:156] Memory required for data: 226996508
I0709 13:07:10.054234 45093 layer_factory.hpp:77] Creating layer res5a_branch2b
I0709 13:07:10.054244 45093 net.cpp:91] Creating Layer res5a_branch2b
I0709 13:07:10.054249 45093 net.cpp:435] res5a_branch2b <- res5a_branch2a
I0709 13:07:10.054255 45093 net.cpp:409] res5a_branch2b -> res5a_branch2b
I0709 13:07:10.057550 45093 net.cpp:141] Setting up res5a_branch2b
I0709 13:07:10.057560 45093 net.cpp:148] Top shape: 1 512 14 14 (100352)
I0709 13:07:10.057564 45093 net.cpp:156] Memory required for data: 227397916
I0709 13:07:10.057569 45093 layer_factory.hpp:77] Creating layer bn5a_branch2b
I0709 13:07:10.057577 45093 net.cpp:91] Creating Layer bn5a_branch2b
I0709 13:07:10.057582 45093 net.cpp:435] bn5a_branch2b <- res5a_branch2b
I0709 13:07:10.057588 45093 net.cpp:396] bn5a_branch2b -> res5a_branch2b (in-place)
I0709 13:07:10.057611 45093 net.cpp:141] Setting up bn5a_branch2b
I0709 13:07:10.057616 45093 net.cpp:148] Top shape: 1 512 14 14 (100352)
I0709 13:07:10.057621 45093 net.cpp:156] Memory required for data: 227799324
I0709 13:07:10.057627 45093 layer_factory.hpp:77] Creating layer scale5a_branch2b
I0709 13:07:10.057636 45093 net.cpp:91] Creating Layer scale5a_branch2b
I0709 13:07:10.057638 45093 net.cpp:435] scale5a_branch2b <- res5a_branch2b
I0709 13:07:10.057644 45093 net.cpp:396] scale5a_branch2b -> res5a_branch2b (in-place)
I0709 13:07:10.057657 45093 layer_factory.hpp:77] Creating layer scale5a_branch2b
I0709 13:07:10.057677 45093 net.cpp:141] Setting up scale5a_branch2b
I0709 13:07:10.057682 45093 net.cpp:148] Top shape: 1 512 14 14 (100352)
I0709 13:07:10.057684 45093 net.cpp:156] Memory required for data: 228200732
I0709 13:07:10.057689 45093 layer_factory.hpp:77] Creating layer res5a_branch2b_relu
I0709 13:07:10.057696 45093 net.cpp:91] Creating Layer res5a_branch2b_relu
I0709 13:07:10.057700 45093 net.cpp:435] res5a_branch2b_relu <- res5a_branch2b
I0709 13:07:10.057705 45093 net.cpp:396] res5a_branch2b_relu -> res5a_branch2b (in-place)
I0709 13:07:10.058075 45093 net.cpp:141] Setting up res5a_branch2b_relu
I0709 13:07:10.058086 45093 net.cpp:148] Top shape: 1 512 14 14 (100352)
I0709 13:07:10.058090 45093 net.cpp:156] Memory required for data: 228602140
I0709 13:07:10.058094 45093 layer_factory.hpp:77] Creating layer res5a_branch2c
I0709 13:07:10.058104 45093 net.cpp:91] Creating Layer res5a_branch2c
I0709 13:07:10.058109 45093 net.cpp:435] res5a_branch2c <- res5a_branch2b
I0709 13:07:10.058116 45093 net.cpp:409] res5a_branch2c -> res5a_branch2c
I0709 13:07:10.060762 45093 net.cpp:141] Setting up res5a_branch2c
I0709 13:07:10.060775 45093 net.cpp:148] Top shape: 1 2048 14 14 (401408)
I0709 13:07:10.060778 45093 net.cpp:156] Memory required for data: 230207772
I0709 13:07:10.060784 45093 layer_factory.hpp:77] Creating layer bn5a_branch2c
I0709 13:07:10.060793 45093 net.cpp:91] Creating Layer bn5a_branch2c
I0709 13:07:10.060798 45093 net.cpp:435] bn5a_branch2c <- res5a_branch2c
I0709 13:07:10.060803 45093 net.cpp:396] bn5a_branch2c -> res5a_branch2c (in-place)
I0709 13:07:10.060828 45093 net.cpp:141] Setting up bn5a_branch2c
I0709 13:07:10.060833 45093 net.cpp:148] Top shape: 1 2048 14 14 (401408)
I0709 13:07:10.060837 45093 net.cpp:156] Memory required for data: 231813404
I0709 13:07:10.060843 45093 layer_factory.hpp:77] Creating layer scale5a_branch2c
I0709 13:07:10.060852 45093 net.cpp:91] Creating Layer scale5a_branch2c
I0709 13:07:10.060878 45093 net.cpp:435] scale5a_branch2c <- res5a_branch2c
I0709 13:07:10.060886 45093 net.cpp:396] scale5a_branch2c -> res5a_branch2c (in-place)
I0709 13:07:10.060905 45093 layer_factory.hpp:77] Creating layer scale5a_branch2c
I0709 13:07:10.060930 45093 net.cpp:141] Setting up scale5a_branch2c
I0709 13:07:10.060935 45093 net.cpp:148] Top shape: 1 2048 14 14 (401408)
I0709 13:07:10.060940 45093 net.cpp:156] Memory required for data: 233419036
I0709 13:07:10.060945 45093 layer_factory.hpp:77] Creating layer res5a
I0709 13:07:10.060952 45093 net.cpp:91] Creating Layer res5a
I0709 13:07:10.060956 45093 net.cpp:435] res5a <- res5a_branch1
I0709 13:07:10.060961 45093 net.cpp:435] res5a <- res5a_branch2c
I0709 13:07:10.060967 45093 net.cpp:409] res5a -> res5a
I0709 13:07:10.060976 45093 net.cpp:141] Setting up res5a
I0709 13:07:10.060981 45093 net.cpp:148] Top shape: 1 2048 14 14 (401408)
I0709 13:07:10.060983 45093 net.cpp:156] Memory required for data: 235024668
I0709 13:07:10.060987 45093 layer_factory.hpp:77] Creating layer res5a_relu
I0709 13:07:10.060994 45093 net.cpp:91] Creating Layer res5a_relu
I0709 13:07:10.060998 45093 net.cpp:435] res5a_relu <- res5a
I0709 13:07:10.061003 45093 net.cpp:396] res5a_relu -> res5a (in-place)
I0709 13:07:10.061234 45093 net.cpp:141] Setting up res5a_relu
I0709 13:07:10.061244 45093 net.cpp:148] Top shape: 1 2048 14 14 (401408)
I0709 13:07:10.061247 45093 net.cpp:156] Memory required for data: 236630300
I0709 13:07:10.061250 45093 layer_factory.hpp:77] Creating layer res5a_res5a_relu_0_split
I0709 13:07:10.061257 45093 net.cpp:91] Creating Layer res5a_res5a_relu_0_split
I0709 13:07:10.061261 45093 net.cpp:435] res5a_res5a_relu_0_split <- res5a
I0709 13:07:10.061267 45093 net.cpp:409] res5a_res5a_relu_0_split -> res5a_res5a_relu_0_split_0
I0709 13:07:10.061275 45093 net.cpp:409] res5a_res5a_relu_0_split -> res5a_res5a_relu_0_split_1
I0709 13:07:10.061281 45093 net.cpp:141] Setting up res5a_res5a_relu_0_split
I0709 13:07:10.061286 45093 net.cpp:148] Top shape: 1 2048 14 14 (401408)
I0709 13:07:10.061290 45093 net.cpp:148] Top shape: 1 2048 14 14 (401408)
I0709 13:07:10.061293 45093 net.cpp:156] Memory required for data: 239841564
I0709 13:07:10.061296 45093 layer_factory.hpp:77] Creating layer res5b_branch2a
I0709 13:07:10.061305 45093 net.cpp:91] Creating Layer res5b_branch2a
I0709 13:07:10.061311 45093 net.cpp:435] res5b_branch2a <- res5a_res5a_relu_0_split_0
I0709 13:07:10.061316 45093 net.cpp:409] res5b_branch2a -> res5b_branch2a
I0709 13:07:10.064002 45093 net.cpp:141] Setting up res5b_branch2a
I0709 13:07:10.064014 45093 net.cpp:148] Top shape: 1 512 14 14 (100352)
I0709 13:07:10.064018 45093 net.cpp:156] Memory required for data: 240242972
I0709 13:07:10.064026 45093 layer_factory.hpp:77] Creating layer bn5b_branch2a
I0709 13:07:10.064034 45093 net.cpp:91] Creating Layer bn5b_branch2a
I0709 13:07:10.064040 45093 net.cpp:435] bn5b_branch2a <- res5b_branch2a
I0709 13:07:10.064046 45093 net.cpp:396] bn5b_branch2a -> res5b_branch2a (in-place)
I0709 13:07:10.064079 45093 net.cpp:141] Setting up bn5b_branch2a
I0709 13:07:10.064085 45093 net.cpp:148] Top shape: 1 512 14 14 (100352)
I0709 13:07:10.064088 45093 net.cpp:156] Memory required for data: 240644380
I0709 13:07:10.064095 45093 layer_factory.hpp:77] Creating layer scale5b_branch2a
I0709 13:07:10.064105 45093 net.cpp:91] Creating Layer scale5b_branch2a
I0709 13:07:10.064108 45093 net.cpp:435] scale5b_branch2a <- res5b_branch2a
I0709 13:07:10.064115 45093 net.cpp:396] scale5b_branch2a -> res5b_branch2a (in-place)
I0709 13:07:10.064126 45093 layer_factory.hpp:77] Creating layer scale5b_branch2a
I0709 13:07:10.064146 45093 net.cpp:141] Setting up scale5b_branch2a
I0709 13:07:10.064152 45093 net.cpp:148] Top shape: 1 512 14 14 (100352)
I0709 13:07:10.064154 45093 net.cpp:156] Memory required for data: 241045788
I0709 13:07:10.064159 45093 layer_factory.hpp:77] Creating layer res5b_branch2a_relu
I0709 13:07:10.064167 45093 net.cpp:91] Creating Layer res5b_branch2a_relu
I0709 13:07:10.064182 45093 net.cpp:435] res5b_branch2a_relu <- res5b_branch2a
I0709 13:07:10.064188 45093 net.cpp:396] res5b_branch2a_relu -> res5b_branch2a (in-place)
I0709 13:07:10.064424 45093 net.cpp:141] Setting up res5b_branch2a_relu
I0709 13:07:10.064434 45093 net.cpp:148] Top shape: 1 512 14 14 (100352)
I0709 13:07:10.064436 45093 net.cpp:156] Memory required for data: 241447196
I0709 13:07:10.064440 45093 layer_factory.hpp:77] Creating layer res5b_branch2b
I0709 13:07:10.064450 45093 net.cpp:91] Creating Layer res5b_branch2b
I0709 13:07:10.064455 45093 net.cpp:435] res5b_branch2b <- res5b_branch2a
I0709 13:07:10.064461 45093 net.cpp:409] res5b_branch2b -> res5b_branch2b
I0709 13:07:10.067759 45093 net.cpp:141] Setting up res5b_branch2b
I0709 13:07:10.067769 45093 net.cpp:148] Top shape: 1 512 14 14 (100352)
I0709 13:07:10.067771 45093 net.cpp:156] Memory required for data: 241848604
I0709 13:07:10.067777 45093 layer_factory.hpp:77] Creating layer bn5b_branch2b
I0709 13:07:10.067786 45093 net.cpp:91] Creating Layer bn5b_branch2b
I0709 13:07:10.067790 45093 net.cpp:435] bn5b_branch2b <- res5b_branch2b
I0709 13:07:10.067797 45093 net.cpp:396] bn5b_branch2b -> res5b_branch2b (in-place)
I0709 13:07:10.067821 45093 net.cpp:141] Setting up bn5b_branch2b
I0709 13:07:10.067826 45093 net.cpp:148] Top shape: 1 512 14 14 (100352)
I0709 13:07:10.067828 45093 net.cpp:156] Memory required for data: 242250012
I0709 13:07:10.067836 45093 layer_factory.hpp:77] Creating layer scale5b_branch2b
I0709 13:07:10.067844 45093 net.cpp:91] Creating Layer scale5b_branch2b
I0709 13:07:10.067848 45093 net.cpp:435] scale5b_branch2b <- res5b_branch2b
I0709 13:07:10.067854 45093 net.cpp:396] scale5b_branch2b -> res5b_branch2b (in-place)
I0709 13:07:10.067867 45093 layer_factory.hpp:77] Creating layer scale5b_branch2b
I0709 13:07:10.067888 45093 net.cpp:141] Setting up scale5b_branch2b
I0709 13:07:10.067893 45093 net.cpp:148] Top shape: 1 512 14 14 (100352)
I0709 13:07:10.067895 45093 net.cpp:156] Memory required for data: 242651420
I0709 13:07:10.067900 45093 layer_factory.hpp:77] Creating layer res5b_branch2b_relu
I0709 13:07:10.067908 45093 net.cpp:91] Creating Layer res5b_branch2b_relu
I0709 13:07:10.067911 45093 net.cpp:435] res5b_branch2b_relu <- res5b_branch2b
I0709 13:07:10.067916 45093 net.cpp:396] res5b_branch2b_relu -> res5b_branch2b (in-place)
I0709 13:07:10.068281 45093 net.cpp:141] Setting up res5b_branch2b_relu
I0709 13:07:10.068292 45093 net.cpp:148] Top shape: 1 512 14 14 (100352)
I0709 13:07:10.068296 45093 net.cpp:156] Memory required for data: 243052828
I0709 13:07:10.068300 45093 layer_factory.hpp:77] Creating layer res5b_branch2c
I0709 13:07:10.068310 45093 net.cpp:91] Creating Layer res5b_branch2c
I0709 13:07:10.068315 45093 net.cpp:435] res5b_branch2c <- res5b_branch2b
I0709 13:07:10.068321 45093 net.cpp:409] res5b_branch2c -> res5b_branch2c
I0709 13:07:10.071043 45093 net.cpp:141] Setting up res5b_branch2c
I0709 13:07:10.071054 45093 net.cpp:148] Top shape: 1 2048 14 14 (401408)
I0709 13:07:10.071058 45093 net.cpp:156] Memory required for data: 244658460
I0709 13:07:10.071065 45093 layer_factory.hpp:77] Creating layer bn5b_branch2c
I0709 13:07:10.071085 45093 net.cpp:91] Creating Layer bn5b_branch2c
I0709 13:07:10.071090 45093 net.cpp:435] bn5b_branch2c <- res5b_branch2c
I0709 13:07:10.071096 45093 net.cpp:396] bn5b_branch2c -> res5b_branch2c (in-place)
I0709 13:07:10.071121 45093 net.cpp:141] Setting up bn5b_branch2c
I0709 13:07:10.071126 45093 net.cpp:148] Top shape: 1 2048 14 14 (401408)
I0709 13:07:10.071130 45093 net.cpp:156] Memory required for data: 246264092
I0709 13:07:10.071137 45093 layer_factory.hpp:77] Creating layer scale5b_branch2c
I0709 13:07:10.071146 45093 net.cpp:91] Creating Layer scale5b_branch2c
I0709 13:07:10.071149 45093 net.cpp:435] scale5b_branch2c <- res5b_branch2c
I0709 13:07:10.071156 45093 net.cpp:396] scale5b_branch2c -> res5b_branch2c (in-place)
I0709 13:07:10.071172 45093 layer_factory.hpp:77] Creating layer scale5b_branch2c
I0709 13:07:10.071195 45093 net.cpp:141] Setting up scale5b_branch2c
I0709 13:07:10.071215 45093 net.cpp:148] Top shape: 1 2048 14 14 (401408)
I0709 13:07:10.071219 45093 net.cpp:156] Memory required for data: 247869724
I0709 13:07:10.071225 45093 layer_factory.hpp:77] Creating layer res5b
I0709 13:07:10.071233 45093 net.cpp:91] Creating Layer res5b
I0709 13:07:10.071238 45093 net.cpp:435] res5b <- res5a_res5a_relu_0_split_1
I0709 13:07:10.071243 45093 net.cpp:435] res5b <- res5b_branch2c
I0709 13:07:10.071249 45093 net.cpp:409] res5b -> res5b
I0709 13:07:10.071257 45093 net.cpp:141] Setting up res5b
I0709 13:07:10.071262 45093 net.cpp:148] Top shape: 1 2048 14 14 (401408)
I0709 13:07:10.071265 45093 net.cpp:156] Memory required for data: 249475356
I0709 13:07:10.071269 45093 layer_factory.hpp:77] Creating layer res5b_relu
I0709 13:07:10.071275 45093 net.cpp:91] Creating Layer res5b_relu
I0709 13:07:10.071280 45093 net.cpp:435] res5b_relu <- res5b
I0709 13:07:10.071285 45093 net.cpp:396] res5b_relu -> res5b (in-place)
I0709 13:07:10.071516 45093 net.cpp:141] Setting up res5b_relu
I0709 13:07:10.071524 45093 net.cpp:148] Top shape: 1 2048 14 14 (401408)
I0709 13:07:10.071527 45093 net.cpp:156] Memory required for data: 251080988
I0709 13:07:10.071532 45093 layer_factory.hpp:77] Creating layer res5b_res5b_relu_0_split
I0709 13:07:10.071538 45093 net.cpp:91] Creating Layer res5b_res5b_relu_0_split
I0709 13:07:10.071542 45093 net.cpp:435] res5b_res5b_relu_0_split <- res5b
I0709 13:07:10.071548 45093 net.cpp:409] res5b_res5b_relu_0_split -> res5b_res5b_relu_0_split_0
I0709 13:07:10.071555 45093 net.cpp:409] res5b_res5b_relu_0_split -> res5b_res5b_relu_0_split_1
I0709 13:07:10.071563 45093 net.cpp:141] Setting up res5b_res5b_relu_0_split
I0709 13:07:10.071568 45093 net.cpp:148] Top shape: 1 2048 14 14 (401408)
I0709 13:07:10.071571 45093 net.cpp:148] Top shape: 1 2048 14 14 (401408)
I0709 13:07:10.071574 45093 net.cpp:156] Memory required for data: 254292252
I0709 13:07:10.071578 45093 layer_factory.hpp:77] Creating layer res5c_branch2a
I0709 13:07:10.071586 45093 net.cpp:91] Creating Layer res5c_branch2a
I0709 13:07:10.071590 45093 net.cpp:435] res5c_branch2a <- res5b_res5b_relu_0_split_0
I0709 13:07:10.071597 45093 net.cpp:409] res5c_branch2a -> res5c_branch2a
I0709 13:07:10.074429 45093 net.cpp:141] Setting up res5c_branch2a
I0709 13:07:10.074442 45093 net.cpp:148] Top shape: 1 512 14 14 (100352)
I0709 13:07:10.074446 45093 net.cpp:156] Memory required for data: 254693660
I0709 13:07:10.074453 45093 layer_factory.hpp:77] Creating layer bn5c_branch2a
I0709 13:07:10.074462 45093 net.cpp:91] Creating Layer bn5c_branch2a
I0709 13:07:10.074467 45093 net.cpp:435] bn5c_branch2a <- res5c_branch2a
I0709 13:07:10.074473 45093 net.cpp:396] bn5c_branch2a -> res5c_branch2a (in-place)
I0709 13:07:10.074494 45093 net.cpp:141] Setting up bn5c_branch2a
I0709 13:07:10.074501 45093 net.cpp:148] Top shape: 1 512 14 14 (100352)
I0709 13:07:10.074503 45093 net.cpp:156] Memory required for data: 255095068
I0709 13:07:10.074511 45093 layer_factory.hpp:77] Creating layer scale5c_branch2a
I0709 13:07:10.074518 45093 net.cpp:91] Creating Layer scale5c_branch2a
I0709 13:07:10.074522 45093 net.cpp:435] scale5c_branch2a <- res5c_branch2a
I0709 13:07:10.074529 45093 net.cpp:396] scale5c_branch2a -> res5c_branch2a (in-place)
I0709 13:07:10.074542 45093 layer_factory.hpp:77] Creating layer scale5c_branch2a
I0709 13:07:10.074563 45093 net.cpp:141] Setting up scale5c_branch2a
I0709 13:07:10.074568 45093 net.cpp:148] Top shape: 1 512 14 14 (100352)
I0709 13:07:10.074570 45093 net.cpp:156] Memory required for data: 255496476
I0709 13:07:10.074576 45093 layer_factory.hpp:77] Creating layer res5c_branch2a_relu
I0709 13:07:10.074584 45093 net.cpp:91] Creating Layer res5c_branch2a_relu
I0709 13:07:10.074587 45093 net.cpp:435] res5c_branch2a_relu <- res5c_branch2a
I0709 13:07:10.074594 45093 net.cpp:396] res5c_branch2a_relu -> res5c_branch2a (in-place)
I0709 13:07:10.074952 45093 net.cpp:141] Setting up res5c_branch2a_relu
I0709 13:07:10.074965 45093 net.cpp:148] Top shape: 1 512 14 14 (100352)
I0709 13:07:10.074967 45093 net.cpp:156] Memory required for data: 255897884
I0709 13:07:10.074986 45093 layer_factory.hpp:77] Creating layer res5c_branch2b
I0709 13:07:10.074998 45093 net.cpp:91] Creating Layer res5c_branch2b
I0709 13:07:10.075003 45093 net.cpp:435] res5c_branch2b <- res5c_branch2a
I0709 13:07:10.075011 45093 net.cpp:409] res5c_branch2b -> res5c_branch2b
I0709 13:07:10.078742 45093 net.cpp:141] Setting up res5c_branch2b
I0709 13:07:10.078753 45093 net.cpp:148] Top shape: 1 512 14 14 (100352)
I0709 13:07:10.078757 45093 net.cpp:156] Memory required for data: 256299292
I0709 13:07:10.078763 45093 layer_factory.hpp:77] Creating layer bn5c_branch2b
I0709 13:07:10.078773 45093 net.cpp:91] Creating Layer bn5c_branch2b
I0709 13:07:10.078778 45093 net.cpp:435] bn5c_branch2b <- res5c_branch2b
I0709 13:07:10.078785 45093 net.cpp:396] bn5c_branch2b -> res5c_branch2b (in-place)
I0709 13:07:10.078809 45093 net.cpp:141] Setting up bn5c_branch2b
I0709 13:07:10.078814 45093 net.cpp:148] Top shape: 1 512 14 14 (100352)
I0709 13:07:10.078819 45093 net.cpp:156] Memory required for data: 256700700
I0709 13:07:10.078825 45093 layer_factory.hpp:77] Creating layer scale5c_branch2b
I0709 13:07:10.078835 45093 net.cpp:91] Creating Layer scale5c_branch2b
I0709 13:07:10.078837 45093 net.cpp:435] scale5c_branch2b <- res5c_branch2b
I0709 13:07:10.078845 45093 net.cpp:396] scale5c_branch2b -> res5c_branch2b (in-place)
I0709 13:07:10.078856 45093 layer_factory.hpp:77] Creating layer scale5c_branch2b
I0709 13:07:10.078876 45093 net.cpp:141] Setting up scale5c_branch2b
I0709 13:07:10.078881 45093 net.cpp:148] Top shape: 1 512 14 14 (100352)
I0709 13:07:10.078884 45093 net.cpp:156] Memory required for data: 257102108
I0709 13:07:10.078891 45093 layer_factory.hpp:77] Creating layer res5c_branch2b_relu
I0709 13:07:10.078897 45093 net.cpp:91] Creating Layer res5c_branch2b_relu
I0709 13:07:10.078902 45093 net.cpp:435] res5c_branch2b_relu <- res5c_branch2b
I0709 13:07:10.078907 45093 net.cpp:396] res5c_branch2b_relu -> res5c_branch2b (in-place)
I0709 13:07:10.079149 45093 net.cpp:141] Setting up res5c_branch2b_relu
I0709 13:07:10.079159 45093 net.cpp:148] Top shape: 1 512 14 14 (100352)
I0709 13:07:10.079162 45093 net.cpp:156] Memory required for data: 257503516
I0709 13:07:10.079166 45093 layer_factory.hpp:77] Creating layer res5c_branch2c
I0709 13:07:10.079177 45093 net.cpp:91] Creating Layer res5c_branch2c
I0709 13:07:10.079181 45093 net.cpp:435] res5c_branch2c <- res5c_branch2b
I0709 13:07:10.079188 45093 net.cpp:409] res5c_branch2c -> res5c_branch2c
I0709 13:07:10.081845 45093 net.cpp:141] Setting up res5c_branch2c
I0709 13:07:10.081858 45093 net.cpp:148] Top shape: 1 2048 14 14 (401408)
I0709 13:07:10.081862 45093 net.cpp:156] Memory required for data: 259109148
I0709 13:07:10.081868 45093 layer_factory.hpp:77] Creating layer bn5c_branch2c
I0709 13:07:10.081878 45093 net.cpp:91] Creating Layer bn5c_branch2c
I0709 13:07:10.081883 45093 net.cpp:435] bn5c_branch2c <- res5c_branch2c
I0709 13:07:10.081889 45093 net.cpp:396] bn5c_branch2c -> res5c_branch2c (in-place)
I0709 13:07:10.081914 45093 net.cpp:141] Setting up bn5c_branch2c
I0709 13:07:10.081919 45093 net.cpp:148] Top shape: 1 2048 14 14 (401408)
I0709 13:07:10.081923 45093 net.cpp:156] Memory required for data: 260714780
I0709 13:07:10.081929 45093 layer_factory.hpp:77] Creating layer scale5c_branch2c
I0709 13:07:10.081938 45093 net.cpp:91] Creating Layer scale5c_branch2c
I0709 13:07:10.081941 45093 net.cpp:435] scale5c_branch2c <- res5c_branch2c
I0709 13:07:10.081948 45093 net.cpp:396] scale5c_branch2c -> res5c_branch2c (in-place)
I0709 13:07:10.081962 45093 layer_factory.hpp:77] Creating layer scale5c_branch2c
I0709 13:07:10.081984 45093 net.cpp:141] Setting up scale5c_branch2c
I0709 13:07:10.081990 45093 net.cpp:148] Top shape: 1 2048 14 14 (401408)
I0709 13:07:10.081992 45093 net.cpp:156] Memory required for data: 262320412
I0709 13:07:10.081997 45093 layer_factory.hpp:77] Creating layer res5c
I0709 13:07:10.082005 45093 net.cpp:91] Creating Layer res5c
I0709 13:07:10.082010 45093 net.cpp:435] res5c <- res5b_res5b_relu_0_split_1
I0709 13:07:10.082027 45093 net.cpp:435] res5c <- res5c_branch2c
I0709 13:07:10.082034 45093 net.cpp:409] res5c -> res5c
I0709 13:07:10.082043 45093 net.cpp:141] Setting up res5c
I0709 13:07:10.082047 45093 net.cpp:148] Top shape: 1 2048 14 14 (401408)
I0709 13:07:10.082051 45093 net.cpp:156] Memory required for data: 263926044
I0709 13:07:10.082054 45093 layer_factory.hpp:77] Creating layer res5c_relu
I0709 13:07:10.082061 45093 net.cpp:91] Creating Layer res5c_relu
I0709 13:07:10.082064 45093 net.cpp:435] res5c_relu <- res5c
I0709 13:07:10.082069 45093 net.cpp:396] res5c_relu -> res5c (in-place)
I0709 13:07:10.082445 45093 net.cpp:141] Setting up res5c_relu
I0709 13:07:10.082458 45093 net.cpp:148] Top shape: 1 2048 14 14 (401408)
I0709 13:07:10.082460 45093 net.cpp:156] Memory required for data: 265531676
I0709 13:07:10.082464 45093 layer_factory.hpp:77] Creating layer conv_new_1
I0709 13:07:10.082476 45093 net.cpp:91] Creating Layer conv_new_1
I0709 13:07:10.082481 45093 net.cpp:435] conv_new_1 <- res5c
I0709 13:07:10.082489 45093 net.cpp:409] conv_new_1 -> conv_new_1
I0709 13:07:10.144320 45093 net.cpp:141] Setting up conv_new_1
I0709 13:07:10.144332 45093 net.cpp:148] Top shape: 1 1024 14 14 (200704)
I0709 13:07:10.144335 45093 net.cpp:156] Memory required for data: 266334492
I0709 13:07:10.144343 45093 layer_factory.hpp:77] Creating layer conv_new_1_relu
I0709 13:07:10.144351 45093 net.cpp:91] Creating Layer conv_new_1_relu
I0709 13:07:10.144356 45093 net.cpp:435] conv_new_1_relu <- conv_new_1
I0709 13:07:10.144362 45093 net.cpp:396] conv_new_1_relu -> conv_new_1 (in-place)
I0709 13:07:10.144711 45093 net.cpp:141] Setting up conv_new_1_relu
I0709 13:07:10.144721 45093 net.cpp:148] Top shape: 1 1024 14 14 (200704)
I0709 13:07:10.144726 45093 net.cpp:156] Memory required for data: 267137308
I0709 13:07:10.144729 45093 layer_factory.hpp:77] Creating layer conv_new_1_conv_new_1_relu_0_split
I0709 13:07:10.144737 45093 net.cpp:91] Creating Layer conv_new_1_conv_new_1_relu_0_split
I0709 13:07:10.144742 45093 net.cpp:435] conv_new_1_conv_new_1_relu_0_split <- conv_new_1
I0709 13:07:10.144748 45093 net.cpp:409] conv_new_1_conv_new_1_relu_0_split -> conv_new_1_conv_new_1_relu_0_split_0
I0709 13:07:10.144757 45093 net.cpp:409] conv_new_1_conv_new_1_relu_0_split -> conv_new_1_conv_new_1_relu_0_split_1
I0709 13:07:10.144764 45093 net.cpp:141] Setting up conv_new_1_conv_new_1_relu_0_split
I0709 13:07:10.144768 45093 net.cpp:148] Top shape: 1 1024 14 14 (200704)
I0709 13:07:10.144773 45093 net.cpp:148] Top shape: 1 1024 14 14 (200704)
I0709 13:07:10.144776 45093 net.cpp:156] Memory required for data: 268742940
I0709 13:07:10.144779 45093 layer_factory.hpp:77] Creating layer rfcn_cls
I0709 13:07:10.144793 45093 net.cpp:91] Creating Layer rfcn_cls
I0709 13:07:10.144796 45093 net.cpp:435] rfcn_cls <- conv_new_1_conv_new_1_relu_0_split_0
I0709 13:07:10.144804 45093 net.cpp:409] rfcn_cls -> rfcn_cls
I0709 13:07:10.176635 45093 net.cpp:141] Setting up rfcn_cls
I0709 13:07:10.176647 45093 net.cpp:148] Top shape: 1 1029 14 14 (201684)
I0709 13:07:10.176651 45093 net.cpp:156] Memory required for data: 269549676
I0709 13:07:10.176658 45093 layer_factory.hpp:77] Creating layer rfcn_bbox
I0709 13:07:10.176672 45093 net.cpp:91] Creating Layer rfcn_bbox
I0709 13:07:10.176678 45093 net.cpp:435] rfcn_bbox <- conv_new_1_conv_new_1_relu_0_split_1
I0709 13:07:10.176687 45093 net.cpp:409] rfcn_bbox -> rfcn_bbox
I0709 13:07:10.189409 45093 net.cpp:141] Setting up rfcn_bbox
I0709 13:07:10.189421 45093 net.cpp:148] Top shape: 1 392 14 14 (76832)
I0709 13:07:10.189425 45093 net.cpp:156] Memory required for data: 269857004
I0709 13:07:10.189432 45093 layer_factory.hpp:77] Creating layer psroipooled_cls_rois
I0709 13:07:10.189443 45093 net.cpp:91] Creating Layer psroipooled_cls_rois
I0709 13:07:10.189448 45093 net.cpp:435] psroipooled_cls_rois <- rfcn_cls
I0709 13:07:10.189453 45093 net.cpp:435] psroipooled_cls_rois <- rois_input_1_split_0
I0709 13:07:10.189461 45093 net.cpp:409] psroipooled_cls_rois -> psroipooled_cls_rois
I0709 13:07:10.189486 45093 psroi_pooling_layer.cpp:27] Spatial scale: 0.0625
I0709 13:07:10.189504 45093 net.cpp:141] Setting up psroipooled_cls_rois
I0709 13:07:10.189509 45093 net.cpp:148] Top shape: 1 21 7 7 (1029)
I0709 13:07:10.189512 45093 net.cpp:156] Memory required for data: 269861120
I0709 13:07:10.189517 45093 layer_factory.hpp:77] Creating layer ave_cls_score_rois
I0709 13:07:10.189527 45093 net.cpp:91] Creating Layer ave_cls_score_rois
I0709 13:07:10.189530 45093 net.cpp:435] ave_cls_score_rois <- psroipooled_cls_rois
I0709 13:07:10.189537 45093 net.cpp:409] ave_cls_score_rois -> cls_score
I0709 13:07:10.189888 45093 net.cpp:141] Setting up ave_cls_score_rois
I0709 13:07:10.189899 45093 net.cpp:148] Top shape: 1 21 1 1 (21)
I0709 13:07:10.189903 45093 net.cpp:156] Memory required for data: 269861204
I0709 13:07:10.189908 45093 layer_factory.hpp:77] Creating layer cls_score_ave_cls_score_rois_0_split
I0709 13:07:10.189918 45093 net.cpp:91] Creating Layer cls_score_ave_cls_score_rois_0_split
I0709 13:07:10.189921 45093 net.cpp:435] cls_score_ave_cls_score_rois_0_split <- cls_score
I0709 13:07:10.189929 45093 net.cpp:409] cls_score_ave_cls_score_rois_0_split -> cls_score_ave_cls_score_rois_0_split_0
I0709 13:07:10.189937 45093 net.cpp:409] cls_score_ave_cls_score_rois_0_split -> cls_score_ave_cls_score_rois_0_split_1
I0709 13:07:10.189944 45093 net.cpp:409] cls_score_ave_cls_score_rois_0_split -> cls_score_ave_cls_score_rois_0_split_2
I0709 13:07:10.189954 45093 net.cpp:141] Setting up cls_score_ave_cls_score_rois_0_split
I0709 13:07:10.189960 45093 net.cpp:148] Top shape: 1 21 1 1 (21)
I0709 13:07:10.189965 45093 net.cpp:148] Top shape: 1 21 1 1 (21)
I0709 13:07:10.189968 45093 net.cpp:148] Top shape: 1 21 1 1 (21)
I0709 13:07:10.189972 45093 net.cpp:156] Memory required for data: 269861456
I0709 13:07:10.189975 45093 layer_factory.hpp:77] Creating layer psroipooled_loc_rois
I0709 13:07:10.189983 45093 net.cpp:91] Creating Layer psroipooled_loc_rois
I0709 13:07:10.189988 45093 net.cpp:435] psroipooled_loc_rois <- rfcn_bbox
I0709 13:07:10.189993 45093 net.cpp:435] psroipooled_loc_rois <- rois_input_1_split_1
I0709 13:07:10.190001 45093 net.cpp:409] psroipooled_loc_rois -> psroipooled_loc_rois
I0709 13:07:10.190007 45093 psroi_pooling_layer.cpp:27] Spatial scale: 0.0625
I0709 13:07:10.190018 45093 net.cpp:141] Setting up psroipooled_loc_rois
I0709 13:07:10.190023 45093 net.cpp:148] Top shape: 1 8 7 7 (392)
I0709 13:07:10.190026 45093 net.cpp:156] Memory required for data: 269863024
I0709 13:07:10.190029 45093 layer_factory.hpp:77] Creating layer ave_bbox_pred_rois
I0709 13:07:10.190038 45093 net.cpp:91] Creating Layer ave_bbox_pred_rois
I0709 13:07:10.190042 45093 net.cpp:435] ave_bbox_pred_rois <- psroipooled_loc_rois
I0709 13:07:10.190049 45093 net.cpp:409] ave_bbox_pred_rois -> bbox_pred
I0709 13:07:10.190397 45093 net.cpp:141] Setting up ave_bbox_pred_rois
I0709 13:07:10.190407 45093 net.cpp:148] Top shape: 1 8 1 1 (8)
I0709 13:07:10.190412 45093 net.cpp:156] Memory required for data: 269863056
I0709 13:07:10.190415 45093 layer_factory.hpp:77] Creating layer bbox_pred_ave_bbox_pred_rois_0_split
I0709 13:07:10.190433 45093 net.cpp:91] Creating Layer bbox_pred_ave_bbox_pred_rois_0_split
I0709 13:07:10.190438 45093 net.cpp:435] bbox_pred_ave_bbox_pred_rois_0_split <- bbox_pred
I0709 13:07:10.190443 45093 net.cpp:409] bbox_pred_ave_bbox_pred_rois_0_split -> bbox_pred_ave_bbox_pred_rois_0_split_0
I0709 13:07:10.190455 45093 net.cpp:409] bbox_pred_ave_bbox_pred_rois_0_split -> bbox_pred_ave_bbox_pred_rois_0_split_1
I0709 13:07:10.190464 45093 net.cpp:141] Setting up bbox_pred_ave_bbox_pred_rois_0_split
I0709 13:07:10.190469 45093 net.cpp:148] Top shape: 1 8 1 1 (8)
I0709 13:07:10.190474 45093 net.cpp:148] Top shape: 1 8 1 1 (8)
I0709 13:07:10.190475 45093 net.cpp:156] Memory required for data: 269863120
I0709 13:07:10.190479 45093 layer_factory.hpp:77] Creating layer per_roi_loss_cls
I0709 13:07:10.190490 45093 net.cpp:91] Creating Layer per_roi_loss_cls
I0709 13:07:10.190493 45093 net.cpp:435] per_roi_loss_cls <- cls_score_ave_cls_score_rois_0_split_0
I0709 13:07:10.190510 45093 net.cpp:435] per_roi_loss_cls <- labels_input_2_split_0
I0709 13:07:10.190517 45093 net.cpp:409] per_roi_loss_cls -> temp_loss_cls
I0709 13:07:10.190524 45093 net.cpp:409] per_roi_loss_cls -> temp_prob_cls
I0709 13:07:10.190531 45093 net.cpp:409] per_roi_loss_cls -> per_roi_loss_cls
I0709 13:07:10.190539 45093 layer_factory.hpp:77] Creating layer per_roi_loss_cls
I0709 13:07:10.190767 45093 net.cpp:141] Setting up per_roi_loss_cls
I0709 13:07:10.190775 45093 net.cpp:148] Top shape: (1)
I0709 13:07:10.190780 45093 net.cpp:148] Top shape: 1 21 1 1 (21)
I0709 13:07:10.190785 45093 net.cpp:148] Top shape: 1 1 1 1 (1)
I0709 13:07:10.190788 45093 net.cpp:156] Memory required for data: 269863212
I0709 13:07:10.190793 45093 layer_factory.hpp:77] Creating layer per_roi_loss_bbox
I0709 13:07:10.190804 45093 net.cpp:91] Creating Layer per_roi_loss_bbox
I0709 13:07:10.190809 45093 net.cpp:435] per_roi_loss_bbox <- bbox_pred_ave_bbox_pred_rois_0_split_0
I0709 13:07:10.190814 45093 net.cpp:435] per_roi_loss_bbox <- bbox_targets_input_3_split_0
I0709 13:07:10.190820 45093 net.cpp:435] per_roi_loss_bbox <- bbox_loss_weights_input_4_split_0
I0709 13:07:10.190827 45093 net.cpp:409] per_roi_loss_bbox -> temp_loss_bbox
I0709 13:07:10.190835 45093 net.cpp:409] per_roi_loss_bbox -> per_roi_loss_bbox
I0709 13:07:10.190850 45093 net.cpp:141] Setting up per_roi_loss_bbox
I0709 13:07:10.190855 45093 net.cpp:148] Top shape: (1)
I0709 13:07:10.190860 45093 net.cpp:148] Top shape: 1 1 1 1 (1)
I0709 13:07:10.190863 45093 net.cpp:156] Memory required for data: 269863220
I0709 13:07:10.190867 45093 layer_factory.hpp:77] Creating layer per_roi_loss
I0709 13:07:10.190876 45093 net.cpp:91] Creating Layer per_roi_loss
I0709 13:07:10.190881 45093 net.cpp:435] per_roi_loss <- per_roi_loss_cls
I0709 13:07:10.190886 45093 net.cpp:435] per_roi_loss <- per_roi_loss_bbox
I0709 13:07:10.190891 45093 net.cpp:409] per_roi_loss -> per_roi_loss
I0709 13:07:10.190899 45093 net.cpp:141] Setting up per_roi_loss
I0709 13:07:10.190904 45093 net.cpp:148] Top shape: 1 1 1 1 (1)
I0709 13:07:10.190908 45093 net.cpp:156] Memory required for data: 269863224
I0709 13:07:10.190912 45093 layer_factory.hpp:77] Creating layer annotator_detector
I0709 13:07:10.190922 45093 net.cpp:91] Creating Layer annotator_detector
I0709 13:07:10.190927 45093 net.cpp:435] annotator_detector <- rois_input_1_split_2
I0709 13:07:10.190932 45093 net.cpp:435] annotator_detector <- per_roi_loss
I0709 13:07:10.190935 45093 net.cpp:435] annotator_detector <- labels_input_2_split_1
I0709 13:07:10.190940 45093 net.cpp:435] annotator_detector <- bbox_loss_weights_input_4_split_1
I0709 13:07:10.190946 45093 net.cpp:409] annotator_detector -> labels_ohem
I0709 13:07:10.190954 45093 net.cpp:409] annotator_detector -> bbox_loss_weights_ohem
I0709 13:07:10.190964 45093 net.cpp:141] Setting up annotator_detector
I0709 13:07:10.190969 45093 net.cpp:148] Top shape: 1 1 1 1 (1)
I0709 13:07:10.190973 45093 net.cpp:148] Top shape: 1 8 1 1 (8)
I0709 13:07:10.190978 45093 net.cpp:156] Memory required for data: 269863260
I0709 13:07:10.190980 45093 layer_factory.hpp:77] Creating layer labels_ohem_annotator_detector_0_split
I0709 13:07:10.190989 45093 net.cpp:91] Creating Layer labels_ohem_annotator_detector_0_split
I0709 13:07:10.190992 45093 net.cpp:435] labels_ohem_annotator_detector_0_split <- labels_ohem
I0709 13:07:10.190999 45093 net.cpp:409] labels_ohem_annotator_detector_0_split -> labels_ohem_annotator_detector_0_split_0
I0709 13:07:10.191006 45093 net.cpp:409] labels_ohem_annotator_detector_0_split -> labels_ohem_annotator_detector_0_split_1
I0709 13:07:10.191015 45093 net.cpp:141] Setting up labels_ohem_annotator_detector_0_split
I0709 13:07:10.191020 45093 net.cpp:148] Top shape: 1 1 1 1 (1)
I0709 13:07:10.191025 45093 net.cpp:148] Top shape: 1 1 1 1 (1)
I0709 13:07:10.191027 45093 net.cpp:156] Memory required for data: 269863268
I0709 13:07:10.191031 45093 layer_factory.hpp:77] Creating layer silence
I0709 13:07:10.191040 45093 net.cpp:91] Creating Layer silence
I0709 13:07:10.191053 45093 net.cpp:435] silence <- temp_loss_cls
I0709 13:07:10.191059 45093 net.cpp:435] silence <- temp_prob_cls
I0709 13:07:10.191064 45093 net.cpp:435] silence <- temp_loss_bbox
…
